trained_models/NeurSLS-distributedREN_amp.pt (torch, 177915 bytes, 50 tensors)

netREN.y f4 [4]
000000 1d 18 8d be 0c 2b 8f be 63 7f 34 3e 3c 27 ca 3e
       -0.2755746 -0.2796253 0.17626719 0.39483058

netREN.r.0.X f4 [90, 90]
000000 e9 d0 36 c0 83 22 2d bf 64 d9 82 bf 51 a7 0a c0
       -2.8565009 -0.67630786 -1.0222592 -2.1664622
000010 c7 ce 93 bf 7b 6c 8d bf d1 73 11 bf 88 3c 0b c0
       -1.1547478 -1.1048731 -0.56817347 -2.1755695
000020 7b d1 96 bf c3 bd ee 3e 0d ad 0e bf 1b 72 1b bf
       -1.1782678 0.46629152 -0.55732805 -0.60720986
000030 33 69 b8 bf dc ee 13 3f 8c 2a 97 3d ee e2 39 3e
       -1.4407104 0.57786345 0.07381162 0.18152973
000040 94 8e 86 bf 64 a0 a6 bf d9 a3 1e 3f 87 0b 98 3d
       -1.0512261 -1.3017697 0.6196876 0.07424074
000050 69 c4 9e bb 1e c6 a9 3e 45 cb 7d be 42 0d 0d 40
       -0.0048451913 0.33158964 -0.24784572 2.2039342
000060 48 0d 88 3f 06 14 6f 3e 71 fb fa bf 3e 15 44 be
       1.0629053 0.23347482 -1.9607984 -0.19148728
000070 bc f3 49 bf 6e 66 ad bf 31 34 70 bf da eb 90 bf
       -0.78887534 -1.3546884 -0.9382964 -1.1321976
000080 21 f1 c7 3e c0 ae 42 bf c2 ec fa be 8c 0c 9f be
       0.39051154 -0.760479 -0.49008757 -0.3106426
000090 4b a5 2a 3e 1d 9a 84 be c8 dc ed be 8c 3b 0e be
       0.16664617 -0.2589883 -0.46457505 -0.13889903
0000a0 78 d9 79 be 79 bd 56 bf e8 ee 06 bf 24 46 13 be
       -0.24399364 -0.8388286 -0.5270829 -0.14382225
0000b0 6f d2 32 40 59 e6 17 bf 51 3e e7 3f d8 28 0e bf
       2.7940938 -0.5933586 1.8065892 -0.5553107
0000c0 00 39 79 bf 37 32 2a 3d 0a a3 4c 3f fd b8 85 bf
       -0.973526 0.041551795 0.7993628 -1.0447079
0000d0 69 8e 18 3f 0e be 65 3f 5f 3c f4 3e 36 4a 24 40
       0.595923 0.89743125 0.4770231 2.5670295
0000e0 37 59 96 be dc 9c d1 3e dc c6 b5 be 52 07 e7 bf
       -0.2936494 0.40939987 -0.3550328 -1.8049109
0000f0 27 fe 18 40 75 f6 94 bf 47 77 22 c0 b0 75 72 3e
       2.3905122 -1.1637713 -2.53853 0.23677707
000100 97 f3 b8 3e b8 25 da be 30 07 5c bf 75 e5 26 bf
       0.36123344 -0.42606902 -0.8594847 -0.65193874
000110 b6 14 c4 bc 6c 0d 2b bb 7d e3 05 3f 80 ed be be
       -0.023935657 -0.002610053 0.52300245 -0.37290573
000120 91 78 c3 3e 6b e4 47 3d cb 40 06 bf 22 d1 75 bf
       0.38177922 0.04880182 -0.52442616 -0.96022236
000130 b9 82 9c be 12 a9 71 bf 30 0e 38 3f 68 cb 3f bf
       -0.30568483 -0.94398606 0.7189665 -0.7491975
000140 2b c8 f8 bd 43 cb ac 3d 25 69 8a bf c0 79 66 bf
       -0.12147554 0.084372066 -1.0813338 -0.90029526
000150 ab e8 ae bf f4 da 35 bf 98 3e cf be cd 61 83 bf
       -1.3664755 -0.7103722 -0.40477443 -1.0264221
000160 31 94 13 3f 52 b9 f1 3e dd 65 8d be 36 9b 19 3f
       0.57648 0.472117 -0.27616778 0.6000246
000170 8b 10 1e bf 80 31 25 3e f2 b9 d6 be 8d a2 0c 40
       -0.6174399 0.16132164 -0.4193874 2.1974213
000180 a3 2f 6a 3f 5b 38 b7 3f cb df 84 3e 58 f6 1b bf
       0.9147894 1.4314073 0.2595199 -0.60922766
000190 be 84 06 3f 85 72 5f bf d8 75 a6 be 82 ce 91 3f
       0.525463 -0.8728412 -0.32511783 1.1391146
0001a0 bc 3a f3 3f f1 22 6f 3e ed 4a e4 be 09 87 59 bd
       1.9002299 0.23353173 -0.44588414 -0.053107295
0001b0 a4 8b 2b c0 76 1e 6c bf 7b 44 e2 bf 0f 55 7c bf
       -2.680398 -0.9223398 -1.7677149 -0.9856729
0001c0 27 f1 73 3f 8d 96 4d bf 0d 7c b2 3e c7 1d ab 3f
       0.95289844 -0.8030785 0.34860268 1.3368462
0001d0 e2 9f e0 be 08 42 3f bf 9f 0c a3 3f 5b 67 9f bd
       -0.4387198 -0.7471013 1.2738227 -0.07783385
0001e0 aa 8c 0e 40 af 78 78 be 8c 94 dc be 14 71 99 3f
       2.2273355 -0.24264787 -0.43082082 1.1987634
0001f0 64 3f 0f c0 03 08 53 3f d5 89 1b bf 6f 29 39 be
       -2.238244 0.824341 -0.6075719 -0.18082212
000200 cc fe 5b 3f c0 c8 3b c0 3e b9 69 3e f2 9c fe 3f
       0.85935664 -2.9341278 0.2282457 1.9891646
000210 94 89 06 bf 38 7f 26 c0 b9 38 fa 3e 67 ec a9 bf
       -0.5255368 -2.6015148 0.488714 -1.3275269
000220 84 a7 0b c0 9f 9d dc bf ce a0 10 3f fd 9a 54 3f
       -2.1820993 -1.7235602 0.5649537 0.83048993
000230 d0 a4 b1 3f 90 67 f4 3e 56 e5 dd 3f 7f ac 22 c0
       1.3878422 0.47735262 1.7335613 -2.5417783
000240 a9 42 09 bf de 74 d1 bf cd ad c7 3f 1c 2f cc 3e
       -0.5361734 -1.636379 1.5599915 0.39879692
000250 e7 51 0b 3f 9a e8 50 3f e3 90 d9 be c3 2b 0c c0
       0.5442185 0.8160492 -0.42493352 -2.190171
000260 9a 94 59 be 55 f8 57 bf 1a c4 ba 3e ac cb c5 3f
       -0.21248093 -0.843633 0.3647774 1.5452781
000270 28 9d b6 3f 49 89 1b 3f e9 70 4e 3d 29 da f3 3f
       1.426671 0.60756356 0.05040065 1.9050952
000280 f3 74 cc 3f eb 4e 57 bd e2 3c e4 bf 11 a4 0b bf
       1.597319 -0.052565496 -1.783108 -0.5454722
000290 9c 9f 04 c0 8e 9f 6e bf 46 21 78 3f eb 11 78 3f
       -2.0722418 -0.9321221 0.9692577 0.9690234
0002a0 e7 e3 3e 3f cd 5e 2f 40 57 49 9b 3f 15 7b cf bf
       0.745665 2.7401612 1.2131757 -1.6209437
0002b0 a5 87 b2 3e 72 8c aa be 66 63 be 3f 23 38 e1 be
       0.34869114 -0.33310276 1.4874084 -0.4398814
0002c0 98 f7 cc 3f 53 01 0e 40 be f4 97 3e 08 44 14 3f
       1.601306 2.2188308 0.2967891 0.5791631
0002d0 35 2e 60 bd 02 29 9c bf 9a 65 db bd d2 04 da 3e
       -0.054731566 -1.2200015 -0.10712738 0.42581803
0002e0 ff 8d f6 3f da 96 e4 bc 7f d6 44 bf bc 8c 0a 3f
       1.9262084 -0.027903963 -0.76889795 0.54120994
0002f0 3b 86 06 3f 78 86 f8 3e ed 80 8f bf 94 65 40 3f
       0.5254857 0.48540092 -1.121122 0.75154996
000300 83 ce 23 3e 30 15 5e 3f 7d e4 36 3f a0 81 87 be
       0.15996747 0.8675108 0.71442395 -0.26466084
000310 2b 2c 87 bf 77 ea 1c c0 c3 5c 0c c0 25 12 8f 3e
       -1.0560354 -2.4518106 -2.1931617 0.2794353
000320 93 10 17 bf 29 65 7a 3f b7 d8 2c bd e5 15 05 bc
       -0.59009665 0.9781061 -0.042198863 -0.008122896
000330 f8 29 33 bf e8 78 b1 3d 19 b2 4c bd 63 f7 db bf
       -0.69985914 0.08665639 -0.049974535 -1.7184871
000340 a8 c7 9c 3f 3d ee 65 3f bf 3c 24 bf 03 eb dc 3f
       1.224843 0.8981665 -0.6415519 1.725922
000350 4e e2 36 bd 7f 69 b7 3f 4d 9a 66 40 c1 f8 3b be
       -0.044649415 1.432907 3.6031678 -0.18356611
000360 f3 4b 5d bf e1 4a b2 3f 7e 37 c8 3f f5 ea 1c be
       -0.86444014 1.3929101 1.5641935 -0.15324004
000370 25 08 e1 bd 95 7c 4e 3f 09 14 d6 3f b2 10 d6 3f
       -0.109878816 0.8065885 1.6724864 1.6723845
000380 af 18 21 40 3c 52 37 bd 01 59 48 be 4d 36 c0 bf
       2.5171316 -0.04475616 -0.19565202 -1.5016571
000390 5c 6d b2 3f 6e c3 9a 3f 8d 21 3b bd 3a 52 27 3f
       1.3939624 1.209089 -0.045686293 0.6535984
0003a0 31 12 46 3e d0 8a c7 3e 95 03 3b 3f a8 9d 9d bf
       0.19342877 0.38973093 0.7305234 -1.2313738
0003b0 79 b4 0b 40 98 1b 04 c0 ba 11 a6 be a9 ec 66 3f
       2.1828902 -2.0641842 -0.324354 0.90204865
0003c0 fb 12 aa bf 09 4e d5 3f 4f 4d c0 3f 25 9b 02 bf
       -1.3287042 1.666444 1.5023593 -0.5101798
0003d0 14 39 3e bf 95 c0 39 bf fe 44 af be b4 74 27 3e
       -0.74305844 -0.7255948 -0.34232324 0.16353112
0003e0 32 5f 87 3f 72 3f 86 bf d6 ed 56 3f f2 eb 74 3f
       1.0575926 -1.0488112 0.8395666 0.95672524
0003f0 2c 4a 91 bf 41 27 88 bf 1f f1 b5 be a8 2d 06 3f
       -1.135076 -1.0636979 -0.35535523 0.52413416

netREN.r.0.Y f4 [30, 30]
000000 4c af be be 06 4f 6b 3e b1 db 14 c0 2a 63 bb 3f
       -0.37243116 0.22979364 -2.325909 1.4639637
000010 95 1b d8 bf f3 7f a9 3f 57 98 1f bf 44 ac 26 3f
       -1.6883417 1.3242172 -0.6234183 0.65106606
000020 76 4e 0b c0 7b 4e 4f bf 98 cb ac 3e 00 5c da bf
       -2.1766639 -0.80979127 0.3374908 -1.7059326
000030 11 a9 10 bf 0c f2 3d 3e 59 92 10 3f f7 cb 10 3f
       -0.56507975 0.18549365 0.5647331 0.56561226
000040 3a 83 2d 3f 41 1c 34 3f f6 f0 9d bf ae 8a 61 bf
       0.6777836 0.7035561 -1.233916 -0.88102233
000050 c4 a2 83 3f 5c 80 99 bf 3a 83 4b bf f1 cf 52 3e
       1.0284047 -1.1992297 -0.7949711 0.20587136
000060 99 c6 52 bf e4 2f d6 bf cd b0 54 bf 16 be c5 3f
       -0.82334286 -1.6733365 -0.83082277 1.5448635
000070 ed 1c 21 3f 12 bd 0d 3f e8 07 26 bf 94 6a c5 3f
       0.6293476 0.55366623 -0.64855814 1.542315
000080 74 f9 3e bf f7 5a 09 c0 9f 0f 9e bf 60 b2 8d bf
       -0.74599385 -2.146177 -1.2348517 -1.1070061
000090 d8 4a a0 3f cb e6 11 40 29 ab cf bf 17 5f 40 be
       1.252284 2.2797115 -1.6224109 -0.18786274
0000a0 bd b8 e7 3f 38 7b b0 3e 25 4f 05 c0 a0 9a e3 3f
       1.8103253 0.34469008 -2.0829556 1.7781563
0000b0 12 be 33 3f 75 63 b8 3d 24 8a 3e 3f af 98 a8 be
       0.702119 0.09003345 0.74429536 -0.32928988
0000c0 ca 8f 7b 3f 94 1a 51 be 17 da 8a 3f c6 54 82 3f
       0.9826628 -0.20420295 1.0847806 1.0182121
0000d0 e7 e5 2e 3e 90 63 82 3e 27 51 77 3f 35 e9 6d 3f
       0.17079888 0.25466585 0.96608204 0.9293397
0000e0 a2 7a b1 be f8 79 18 3f 6f 1f d7 3f 89 fa 8c be
       -0.34663874 0.5956111 1.6806468 -0.27534893
0000f0 a4 1e c9 3f fb 8a 11 bf 01 b4 cd bd 75 2c d3 bf
       1.5712476 -0.5685269 -0.10044099 -1.6497942
000100 5a d7 a1 3f eb 4d 72 3f d9 bf 9a be 31 6c 6d 3f
       1.2643845 0.94650143 -0.30224493 0.9274321
000110 fa cd 82 be 7c fe e6 3e 1a b0 9d 3f 32 c9 81 3f
       -0.25547773 0.4511603 1.2319367 1.0139525
000120 cf d0 8d 3f 96 23 05 bf 5f 92 bc 3f 31 bc eb 3f
       1.1079348 -0.52007425 1.4732169 1.8416806
000130 b7 57 81 3f 3b a8 f1 3d c2 b8 01 be f5 cd 0c bf
       1.0104893 0.117996655 -0.12668136 -0.55001765
000140 09 20 09 3f 55 31 49 be e8 84 e6 bd 26 c1 b8 3f
       0.53564507 -0.19647725 -0.112558186 1.4433944
000150 a3 58 8e 3f d7 36 0b bf fb e8 15 3f 8f 31 b6 bf
       1.11208 -0.54380554 0.58558625 -1.4233874
000160 c6 64 69 be ae 3e c2 3b 0e 1d 4d be 1e 21 d4 3f
       -0.22792348 0.005927882 -0.20030615 1.6572607
000170 0f 04 ab 3e 73 0d 68 3f de c8 35 40 5e bd 05 bf
       0.33401534 0.9064552 2.840385 -0.52242076
000180 63 8e cf bf 2f 8d 8b 3f d1 4d 82 3d ea 27 d8 3c
       -1.6215328 1.0902461 0.063624986 0.02638622
000190 8f d4 27 40 73 64 f8 bf 95 86 da 3d e3 88 a6 bf
       2.6223485 -1.9405655 0.10670201 -1.3010525
0001a0 6a a1 c6 3f 84 4a 93 3f b0 43 7e bf 22 bd 93 bf
       1.551801 1.1507115 -0.9932203 -1.1542094
0001b0 bc 8e 8c bf cb 7c 27 3e 38 84 23 3f 6f d9 d0 be
       -1.0981059 0.16356198 0.63873625 -0.4079089
0001c0 0b 4f d1 3f 55 fb 5c bf b1 01 1b bf b1 b2 38 3f
       1.6352247 -0.86321 -0.60549456 0.7214766
0001d0 6f e0 07 bf 16 ed bd 3f 57 61 4a bf 8a 16 a1 bf
       -0.53076833 1.4837978 -0.7905478 -1.2585003
0001e0 30 7f fe 3f a6 f2 f7 3f 66 01 29 be ad 5c 06 3e
       1.9882565 1.9370925 -0.1650444 0.1312129
0001f0 8e ab 30 bf cb e6 09 c0 85 e6 d5 3f 8a a2 23 3f
       -0.6901177 -2.1547115 1.6710974 0.6391989
000200 f6 64 57 3f 4f 4a 18 40 d3 6d ce bf 77 10 4e bf
       0.8413843 2.3795354 -1.6127266 -0.80493873
000210 99 89 25 c0 6e ce af 3f 8c 72 3b 40 a6 00 63 bf
       -2.5865233 1.3734872 2.9288664 -0.88672864
000220 e1 23 5b 3f fa 02 69 40 ab 41 9d 3e 51 16 a7 bf
       0.8560162 3.6408067 0.30714163 -1.3053685
000230 6e 26 30 3f fe ab 85 bf b7 93 83 bf 24 ac be 3f
       0.6880864 -1.0443113 -1.0279454 1.4896283
000240 73 74 05 bf e4 3c a2 bf e0 af e6 3d 67 83 e2 3f
       -0.5213081 -1.2674832 0.11264014 1.7696351
000250 4f 47 77 bf b6 42 89 bf b1 0c 01 40 52 f3 50 3f
       -0.96593183 -1.0723484 2.0163996 0.8162128
000260 15 f4 12 3f 7a e0 c6 3f fe d4 b0 3f 26 48 8d be
       0.5740369 1.5537255 1.3815 -0.27594107
000270 6b 41 7b 3d 96 0e f3 be 56 9b e3 be 2d 94 d4 3e
       0.061341684 -0.47472066 -0.4445445 0.415193
000280 1b 47 81 bf 1b db c4 3f d3 b3 0a 3f b6 eb 58 bf
       -1.0099825 1.5379366 0.5418064 -0.84734666
000290 dc cb 19 3f 85 ca 21 3f 16 23 77 3e 50 d8 88 3f
       0.6007669 0.63199645 0.24134478 1.0691013
0002a0 82 a2 e1 be 6b af 99 3f 8c 24 88 3e c0 54 91 3f
       -0.44069296 1.2006658 0.26590383 1.1353989
0002b0 36 00 f5 bf c6 82 fc 3e 63 ac 0a bf dd da 9d 3f
       -1.9140689 0.49318522 -0.5416929 1.2332417
0002c0 46 f3 c7 3f cd b0 09 3e 8b 7b c0 bf 66 93 1b bf
       1.5621116 0.1344635 -1.5037702 -0.6077179
0002d0 cd b3 21 be 9d 7e 2c bf 41 89 92 bf 84 cf 6d 3f
       -0.15791245 -0.67380697 -1.1448137 0.9289477
0002e0 e8 bc e4 bf 32 3b ff bf b4 78 2b bf 64 16 50 bf
       -1.787015 -1.993994 -0.66981053 -0.81284165
0002f0 15 01 a1 3f 0f ef 79 3f eb db 2b 3e 1c 87 c1 3f
       1.2578455 0.976304 0.16783111 1.5119357
000300 75 ed c7 3f f0 36 71 3f c8 1a c3 be ea 40 fa be
       1.5619341 0.9422445 -0.3810637 -0.4887765
000310 89 31 7c 3e 1b 0a 97 bf f0 71 dc bd 77 f0 fb be
       0.24628271 -1.1799959 -0.10763919 -0.49206898
000320 d3 60 c7 bf 9a b2 7c bf 74 7a 3f bf e2 f7 55 bf
       -1.5576423 -0.98710024 -0.74796224 -0.83581364
000330 b4 97 93 bf 40 41 dc bf 97 04 9f bf 93 00 0b be
       -1.1530671 -1.7207413 -1.2423276 -0.13574438
000340 75 78 86 3f ef f0 19 3f b5 02 ce bf 55 1a 89 3f
       1.050551 0.6013326 -1.6094576 1.0711161
000350 82 83 f5 3d 6d 84 b4 bf f1 ec 22 c0 e0 c1 ce bf
       0.11987974 -1.4102913 -2.5457118 -1.6152916
000360 dc 20 2c 3f b7 8d 01 be 8e be 00 bf 70 70 b3 3f
       0.6723764 -0.12651716 -0.50290763 1.4018688
000370 dd c8 09 3f 28 89 0e bf 55 31 ee bf 59 0a 08 c0
       0.5382212 -0.55678034 -1.8608805 -2.1256316
000380 ad 30 e9 be 9b 99 63 be 76 68 43 be a9 82 c4 3f
       -0.4554495 -0.22226565 -0.19082817 1.5352374
000390 a3 eb 61 be 19 a1 9f be c8 c3 0d bf 97 2b 99 bf
       -0.22062545 -0.31177595 -0.55376863 -1.1966428
0003a0 6c 00 20 3e 1a f0 19 3f 7b f9 2f be e8 82 d5 bf
       0.15625161 0.6013199 -0.17185013 -1.6680574
0003b0 42 ed 32 bc ca 73 c1 be f3 74 d7 3f 37 2f b2 bf
       -0.0109208245 -0.37783653 1.6832565 -1.3920659
0003c0 85 ad 18 3f 43 00 ae 3e 49 91 57 bf 6a 9d 9f bf
       0.5963977 0.33984575 -0.8420606 -1.2469914
0003d0 3a 87 89 3f 4a 96 97 3e 7b 9e cc 3f 63 36 4e bf
       1.0744393 0.2960685 1.5985864 -0.8055174
0003e0 dc da 8f be f6 99 46 bf c9 1c 96 3e af 68 59 bf
       -0.28096664 -0.77578676 0.29318836 -0.8492536
0003f0 1c 7f 0f bf f5 2c ee 3e 64 a7 80 bc 42 c4 e0 3c
       -0.5605333 0.46518674 -0.015704818 0.027437333

netREN.r.0.B2 f4 [30, 6]
000000 ac ba 1a bf 5b fd 34 3f 6b 01 d8 3f fd 8b f0 3e
       -0.6044109 0.7069909 1.6875433 0.46981803
000010 f0 af 69 be 9b 90 a0 3f 1d 58 05 be ad bc a3 3f
       -0.22821021 1.254413 -0.13021894 1.2791954
000020 e6 5f 41 bf 63 1b 2c 3f c4 28 05 40 50 b0 9d bf
       -0.75536954 0.6722929 2.0806131 -1.2319431
000030 3c e8 cc be 5d 9f bc bf c3 98 56 3d 7b ae 96 bf
       -0.4002093 -1.4736134 0.05239178 -1.1771997
000040 0b ae 86 bf 1b cb d0 be 08 46 ad be 61 86 0f c0
       -1.0521864 -0.40779957 -0.33842492 -2.2425768
000050 8a e8 b5 bf 9c d1 b4 bc d0 a3 12 3e f0 cc e3 bf
       -1.421159 -0.022072606 0.14320302 -1.7796917
000060 8b 7f 33 3f 94 88 30 bf c4 59 7d bf 35 75 bd bf
       0.7011649 -0.689584 -0.98965096 -1.4801394
000070 e0 6b 8c bd ab f0 8d 3f 6a 70 03 c0 dd 2e 43 3f
       -0.06856513 1.1089071 -2.0537362 0.7624338
000080 a5 8e e1 3e 53 60 5a be 80 fa df bd 47 1a ac 3f
       0.44054142 -0.21325807 -0.10936451 1.3445519
000090 6a 95 62 3e ce 18 37 40 60 80 9e 3f e6 b2 fc 3d
       0.2212731 2.860889 1.2382927 0.1233881
0000a0 f8 9f df be 35 1e 03 be ec 0b 37 bf 02 54 97 3f
       -0.43676734 -0.12804492 -0.71502566 1.1822512
0000b0 be 0d df 3f 2c 54 94 bd 49 3d b6 3f b8 b7 f4 b9
       1.7426069 -0.07242617 1.4237453 -0.00046676188
0000c0 09 c1 03 3f 9d b4 0b c0 55 90 a7 3e 6d 19 f5 bf
       0.51466423 -2.1828988 0.32727304 -1.9148384
0000d0 76 74 0a c0 d7 9f 54 bf 0c 55 4b bf d9 2e 12 40
       -2.1633582 -0.83056396 -0.79426646 2.2841094
0000e0 b6 59 27 bc 7f fa c2 3f 38 95 3d 3f 3e c3 95 be
       -0.01021426 1.5232695 0.74055815 -0.2925052
0000f0 96 16 42 40 a8 75 81 3f 08 0e 30 bf e4 1c ac bf
       3.0326285 1.0114031 -0.6877141 -1.3446317
000100 70 7b 13 3e 97 e2 a8 3f 1f 5f cc be 28 f9 e0 bd
       0.14402556 1.319415 -0.39916322 -0.10985023
000110 8f 35 58 40 10 98 88 bf d3 ac dd be 82 57 34 3f
       3.378269 -1.0671406 -0.43295917 0.70446026
000120 55 04 eb bd 4a 4e c9 3d 24 ec 54 be 7a b8 f0 bf
       -0.11475436 0.098293856 -0.20793205 -1.8806298
000130 e9 d7 34 3d b5 f7 cd bd cb dc 9f bf 79 a5 ee bc
       0.04415122 -0.10057012 -1.2489256 -0.029131638
000140 20 04 09 bf 0c be 0d 3f 72 48 b8 3d ea 4f 37 3f
       -0.5352192 0.55368114 0.08998193 0.71606314
000150 05 b2 e8 bd 41 23 b1 bb 4c b6 16 c0 e1 2e 9b bf
       -0.113620795 -0.005405814 -2.3548765 -1.2123681
000160 92 ff a9 3e c2 f0 89 be b1 78 61 bf 4a c6 13 3d
       0.33202797 -0.26941496 -0.88074785 0.036077775
000170 45 43 6f be 98 28 01 c0 c5 d0 4b bc 2e b3 84 bf
       -0.23365505 -2.0181026 -0.012439911 -1.0367181
000180 7c 4d bd bf cd b0 5c 3e 9e b0 25 bf ae 73 10 c0
       -1.4789271 0.21551819 -0.6472262 -2.2570605
000190 80 a7 a6 3f b8 d1 0b 40 51 c6 60 bf 78 bf 45 3e
       1.3019867 2.1846752 -0.87802607 0.19311321
0001a0 0f f1 76 3f ee 42 9b bd 35 f3 a3 3f 40 d7 4e 40
       0.96461576 -0.07581125 1.2808596 3.2318878
0001b0 f8 75 90 3e 51 b8 a8 3e 09 d6 35 bf 95 74 1f bf
       0.28215003 0.32953122 -0.71029717 -0.62287265
0001c0 b8 aa 84 bf 93 e7 ec bf 3b fd a2 3e 8a 2c f3 bf
       -1.0364599 -1.8508171 0.31833825 -1.8997967
0001d0 01 77 81 3f da 0f 27 3e cc 39 1c c0 4e c4 48 3f
       1.0114442 0.1631464 -2.4410276 0.7842454
0001e0 2c a6 68 bf db 52 e4 be cc b9 5c 3f a5 93 33 3f
       -0.9087856 -0.44594464 0.86221004 0.7014716
0001f0 de 06 41 3f 4c c7 1a 3e e2 f9 ca bf 1f 47 24 3e
       0.75401103 0.15115088 -1.5857508 0.16042756
000200 7e 82 cc bf f6 06 08 c0 90 68 54 bf a4 1b d5 be
       -1.5977323 -2.1254249 -0.8297205 -0.4162265
000210 b8 3e 1c 3f 63 b9 cb be 86 69 1c 3e 7f 94 91 3f
       0.610332 -0.39789876 0.15274629 1.1373442
000220 27 9f 02 c0 fa 61 b6 3e 23 ab 49 40 74 d1 f7 3e
       -2.040964 0.35621625 3.1510704 0.48401988
000230 f1 ed 2e 3f ef 6f cc 3d 48 5d c9 be 14 14 af 3f
       0.6833182 0.09982287 -0.3932898 1.3678002
000240 19 d5 aa 3e 0c f2 39 bf 52 1d bc 3e 4f 67 0c bf
       0.33365706 -0.7263496 0.3674112 -0.54845136
000250 eb 2a 04 c0 fb e7 44 40 99 d8 19 3f bc 8d 0e bf
       -2.0651195 3.076659 0.60096127 -0.5568502
000260 87 fa 2b bf 79 40 fa 3c cc 6d 16 bf ed 8c d4 bd
       -0.6717915 0.030548321 -0.58761287 -0.10378442
000270 ec 54 a2 bd 67 ac df 3f 9b 7d b8 be 4c e9 40 bf
       -0.07926354 1.7474488 -0.3603333 -0.7535598
000280 b9 95 79 3f d3 06 ed 3e 16 21 81 bf cc 34 2c bf
       0.97494084 0.4629427 -1.0088222 -0.6726806
000290 1a ec 89 bf 1b ed be bf 53 ad 79 3e 49 98 97 bf
       -1.0775177 -1.4916109 0.24382524 -1.1843349
0002a0 9c 37 b7 bf 97 47 a6 bf f4 5e c7 3f 7a 2d a4 3f
       -1.4313846 -1.2990597 1.5575852 1.2826378
0002b0 c3 62 b2 bf fb 4d 06 40 2d c8 69 bf b9 04 51 be
       -1.393639 2.0985096 -0.9132107 -0.20411958
0002c0 b6 3d 34 c0 17 07 8e bf 6b c0 b2 3f 52 24 37 bf
       -2.8162665 -1.1095914 1.3964971 -0.71539795

netREN.r.0.C2 f4 [2, 30]
000000 9c b1 b7 be db a7 21 bf 22 9a b1 3d f9 e2 49 3f
       -0.35877693 -0.6314675 0.086719766 0.7886196
000010 99 7c 15 bf 1e 50 48 3f ab 76 77 bf 3e 40 ff bf
       -0.58393246 0.7824725 -0.9666545 -1.994148
000020 f6 43 92 3f 09 4d 2c c0 e7 a0 76 bf 0e 09 5e 3f
       1.142699 -2.6922019 -0.9633927 0.86732566
000030 9a 78 ab 3f 1a c6 17 bf ff ff 05 bf 73 e9 ad 3f
       1.339618 -0.59286654 -0.52343744 1.3586868
000040 cf 01 fe be 37 4a e5 be a8 33 b3 3e 9f d6 a3 3f
       -0.49610755 -0.44783184 0.35000348 1.2799872
000050 90 c8 44 3e 98 b7 03 40 cd b8 d2 3f d1 fc 7a bd
       0.19217134 2.0580807 1.6462647 -0.06127626
000060 0d 7c 80 bf 42 70 dd be f4 a4 13 bf 38 63 89 bf
       -1.0037857 -0.43249708 -0.57673573 -1.0733404
000070 33 cb f5 be 3e e5 43 3e fe 61 44 bf a9 04 d6 bf
       -0.4800659 0.19130418 -0.76712024 -1.6720172
000080 28 32 70 be b4 06 4d bf d0 82 d9 bf 93 91 46 be
       -0.23456633 -0.80088353 -1.6993046 -0.1939147
000090 93 1b 89 be 50 15 9b be 21 1d ea bf 48 e4 02 bf
       -0.2677885 -0.30289698 -1.829014 -0.5112958
0000a0 12 c1 82 be ef c9 9e 3f ab ab 3f bf f7 4b d1 3e
       -0.25537926 1.2405375 -0.7487132 0.4087827
0000b0 68 fe 4a c0 ee 68 15 3f 04 98 09 40 f7 f4 c3 3f
       -3.1717777 0.58363235 2.1499033 1.5309132
0000c0 bd c4 09 be 0c 21 bc 3d c9 10 46 3f 4b 6f 6d 3e
       -0.13453956 0.09185991 0.7736936 0.23186986
0000d0 e7 8d b1 bf 4c 2f 50 bf a2 f0 b8 be 04 26 be bf
       -1.387143 -0.8132217 -0.36121088 -1.4855351
0000e0 45 df 55 3e 93 4d 7a bf bb db cf 3e 29 aa 6e 3f
       0.20885952 -0.9777462 0.4059733 0.93228394

netREN.r.0.D21 f4 [2, 30]
000000 07 95 2e bf cc d2 1f 3e 94 dc 97 3e b4 5a af 3f
       -0.6819615 0.15607756 0.29660475 1.3699555
000010 1e dd a0 bf 55 06 03 40 0e 43 c6 bf ec 62 1e bf
       -1.256748 2.0472615 -1.5489213 -0.6186969
000020 f3 d8 d0 3f e6 57 0a 3f 88 ff ae 3f 4e 08 41 bf
       1.6316208 0.5404037 1.3671732 -0.75403297
000030 72 6a 17 40 be df b1 3f fb f4 8f bd b8 66 4a be
       2.365872 1.3896406 -0.07029148 -0.19765747
000040 33 1e c4 be 38 da 81 3d d6 db 44 bf 7f 50 ee 3e
       -0.3830429 0.0634045 -0.76897943 0.4654579
000050 09 06 d7 3e 97 13 d9 3c ab 22 8d 3f 34 d3 49 3c
       0.41996792 0.026498599 1.1026205 0.012318421
000060 09 0c ad bf 81 57 ac be f3 ef e0 bf 64 0b 17 3f
       -1.3519298 -0.3366051 -1.7573227 0.59001756
000070 17 c5 9d bf 37 d1 8f bf 05 2b 77 bf 76 21 83 bf
       -1.2325772 -1.1235722 -0.9655002 -1.0244586
000080 37 2e 86 3f 92 1a 5d bf 2d 05 17 40 ae 6e 11 c0
       1.0482854 -0.8636867 2.359691 -2.2723804
000090 a7 6c 5a bf 67 bc b3 bf d6 37 24 bf fa e8 1c bf
       -0.8532204 -1.4041871 -0.641477 -0.61292994
0000a0 0e 5c a8 3d e0 10 87 bd 62 95 33 bf 34 06 3d be
       0.08220683 -0.065950155 -0.70149815 -0.18459398
0000b0 40 ab 95 3e 2e 7f 8d 3e c0 f3 68 bf 1d 53 eb bf
       0.29232216 0.27636093 -0.90996933 -1.8384739
0000c0 e5 05 12 bf 3f c2 95 bf 7d 2e 86 bf 02 8f 82 3f
       -0.57040244 -1.1699904 -1.0482937 1.0199893
0000d0 80 8e 57 3f 23 87 d3 be 72 b5 a5 bf 99 17 07 be
       0.8420181 -0.4131404 -1.2945998 -0.13192596
0000e0 0d 3c e7 be ef 78 9d bf 2d ea cc 3e ae aa 60 bf
       -0.45163003 -1.2302531 0.40022412 -0.87760437

netREN.r.0.Z3 f4 [4, 2]
000000 a1 65 b5 3e 02 a6 b2 3e 52 0b 41 bd 8f 99 1b be
       0.354291 0.3489228 -0.047129937 -0.15195297
000010 62 7d bc 3f 54 cb cb 3e 91 d0 8a 3f 8f 59 45 be
       1.4725764 0.39803565 1.08449 -0.19272445

netREN.r.0.X3 f4 [2, 2]
000000 81 9e 48 bf 59 9d 72 bf 7e 5c 84 bf 4e 59 72 bf
       -0.7836686 -0.94771343 -1.0340726 -0.9466752

netREN.r.0.Y3 f4 [2, 2]
000000 86 9d c6 bf 07 98 90 bf ae 9e 8a 3f 4d a9 90 bf
       -1.5516822 -1.1296395 1.0829675 -1.1301666

netREN.r.0.D12 f4 [30, 6]
000000 d7 4a 48 be 0d e0 0a bf eb ae f8 3f 16 b6 b9 3d
       -0.19559799 -0.54248124 1.9428381 0.09067933
000010 43 4b 44 3e ef 23 33 bf c1 fa 3b 3f c5 30 c4 bf
       0.19169335 -0.69976705 0.73429495 -1.5327383
000020 2d 07 17 bf 14 51 d6 be 12 68 02 3e 73 a7 f5 3e
       -0.58995324 -0.41858733 0.12735012 0.47979316
000030 4b 14 67 bf 9b 1b b0 3f d3 30 76 c0 c9 e0 b6 bf
       -0.9026534 1.3758425 -3.84673 -1.4287349
000040 59 43 13 3e a7 f2 84 3f 5f fe 61 bf c4 21 24 3f
       0.1438116 1.0386552 -0.88278764 0.6411402
000050 54 36 76 bf 0e c2 a0 bf 16 8e a1 bf ce e6 1b 3f
       -0.9617665 -1.2559221 -1.2621486 0.60899055
000060 bf 30 f7 bf b5 16 90 3e a5 a9 88 3f 5a 92 a1 bf
       -1.9311751 0.28142324 1.0676771 -1.2622788
000070 41 12 63 3f 18 da 16 bf 5b 28 af bf 4e 23 02 40
       0.8869973 -0.58926535 -1.368419 2.0334048
000080 55 f6 fd 3e f0 cc d6 bf 83 53 ef bf 26 52 ba 3e
       0.49602 -1.6781292 -1.8697361 0.363908
000090 b8 3a 1e 3f fe 85 94 bf 5b 13 3a bd e3 38 9d 3e
       0.6180835 -1.1603391 -0.045428615 0.30707464
0000a0 c8 8e da 3e 6e e7 8d bf 49 d9 bc ba ca 10 eb bf
       0.42687058 -1.1086252 -0.0014408018 -1.8364499
0000b0 c0 b0 e7 3e fa 7d 9d 40 75 20 12 3e cf 76 8b 3f
       0.45252037 4.921628 0.14270194 1.0895633
0000c0 67 d7 9a bf b5 94 04 bf a2 13 83 bf be ed 69 3f
       -1.2096986 -0.5178941 -1.0240366 0.9137839
0000d0 b9 ca 0b c0 7f 30 82 bf b7 5e 9a 3e 4c 46 ac be
       -2.1842482 -1.017105 0.30150387 -0.33647382
0000e0 59 0f c7 be 7b 76 db 3f 48 29 36 bf e2 a4 ec bf
       -0.38878897 1.7145532 -0.7115674 -1.8487818
0000f0 53 a9 41 c0 7c eb b5 3f e4 ef 6c bf 6e 7c bf bf
       -3.0259597 1.4212489 -0.92553544 -1.4959848
000100 f4 8a bd be ba 36 87 bf e2 f7 9f bf 0b 61 36 bf
       -0.37020075 -1.0563576 -1.2497523 -0.71241826
000110 8a 01 2e 3f cc ab 16 bf 20 51 54 3e 48 9e 0b bf
       0.679711 -0.5885589 0.20734072 -0.54538393
000120 75 95 4a 3f a6 80 36 bf 14 70 c7 bf 1d 8d 56 bf
       0.79134303 -0.7129005 -1.5581079 -0.8380907
000130 f3 14 e4 3e 55 0c 8f 3e 28 7f 0c 3f 37 62 14 be
       0.44547233 0.27939096 0.54881525 -0.14490591
000140 49 c7 28 bf fa c3 6c bf bd 5e f7 3f b5 60 19 40
       -0.65929085 -0.92486537 1.9325787 2.3965275
000150 bc ff 8a bf a3 3e 94 3f a0 5c 57 bf 77 3c 5f 3e
       -1.0859294 1.1581615 -0.8412571 0.2180041
000160 fe b2 1e bf 28 2d 6e 3f 43 91 a0 3e 69 7b 03 bf
       -0.6199187 0.9303765 0.31360826 -0.51360184
000170 f9 1d ab 3f da 1b b5 3e 31 29 eb bc 88 29 7c 3f
       1.3368522 0.35372812 -0.028706165 0.9850087
000180 52 f6 81 be c4 79 71 3f 89 0c 80 3e 39 36 09 bf
       -0.2538324 0.94326425 0.25009564 -0.5359836
000190 31 f4 ce 3f cf 80 23 3f d1 66 8f 3f f3 1d ce bf
       1.6168271 0.6386842 1.1203252 -1.610289
0001a0 4f 09 c8 bf 4c 90 d1 be 8a db 06 be 68 e1 ed bf
       -1.5627841 -0.40930402 -0.13169685 -1.8584414
0001b0 69 83 aa 3f 25 90 56 bc fb 85 91 bf 64 f3 7b 3f
       1.3321353 -0.01309589 -1.1369013 0.9841826
0001c0 09 92 7a 3f 8c f6 33 bf f8 25 8d bf 0b 11 91 3f
       0.9787908 -0.70298076 -1.1027212 1.1333326
0001d0 94 40 90 be 4b 44 da bf ed 29 1d 3f 60 36 18 c0
       -0.2817427 -1.7052091 0.613921 -2.3783188
0001e0 a1 d3 4b 40 a7 15 e7 bf e5 b8 dc bf 97 d8 81 bf
       3.1847918 -1.8053483 -1.7243925 -1.0144223
0001f0 cf 71 cb be cf f6 5c 3d 56 6e a1 3f df 16 73 bf
       -0.39735267 0.053946313 1.2611797 -0.94956774
000200 f6 af 19 c0 2e ad 38 bf e3 e2 8f 3f 9b d5 f9 3f
       -2.4013648 -0.7213925 1.1241115 1.9518312
000210 9b 81 35 3e e7 eb 8c 3f f5 ad 04 40 1f f1 53 3f
       0.17725222 1.1009492 2.0731175 0.82789797
000220 21 81 aa bf 12 66 02 bf 65 6f b0 be 7f 07 dd be
       -1.3320657 -0.50936997 -0.34459987 -0.43169782
000230 1b 0b cf 3f 9e b1 6e bf 2d ff 21 bf 5f a8 9e 3f
       1.6175264 -0.9323977 -0.6327999 1.2395133
000240 aa d7 c7 be d1 4b a3 3f 17 41 b4 be 60 3d 1c 3e
       -0.39031726 1.2757512 -0.3520591 0.15257788
000250 22 27 ba 3e 5b 1b a8 bf 3a c9 0b 3f b8 53 83 3f
       0.3635798 -1.3133348 0.5460392 1.0259924
000260 65 83 26 3f 4d 12 28 bf d3 8e 37 bd fc 44 ed be
       0.6504424 -0.65652925 -0.044813942 -0.46341693
000270 7e 0a 68 bf cd 7c e6 3f ad 44 26 bf 5d d1 22 bf
       -0.9064101 1.8006836 -0.6494854 -0.63600713
000280 e5 a0 b0 3f 8c 82 6e 3f 37 c1 50 3c 6a d9 33 bf
       1.3799101 0.9316795 0.0127413785 -0.7025362
000290 dc 03 a5 3d 59 8b 23 3f 53 6b 00 c0 4b 09 1a c0
       0.08057377 0.638845 -2.0065506 -2.4068172
0002a0 91 fd c5 bf 96 ae eb 3c 55 63 1f 3f af 32 4e 3f
       -1.5468007 0.028769772 0.62260944 0.8054609
0002b0 25 a7 f5 3f c6 ce 0b bd c3 11 e4 be bf 2f 81 3f
       1.9191633 -0.03413274 -0.445448 1.0092696
0002c0 2f c2 61 3d 53 19 88 3f f7 1c ae 3f 67 09 0d c0
       0.05511683 1.0632728 1.3602589 -2.2036989

netREN.r.0.bxi f4 [30]
000000 73 01 b8 bd a5 bf 06 be 3f 9a dc bf a8 7c 99 3f
       -0.089846514 -0.13159044 -1.7234572 1.1991167
000010 86 5e d6 bc 47 a2 d2 3e df e4 ab be 9b 30 83 bf
       -0.02616812 0.41139433 -0.33573052 -1.0249208
000020 b7 d2 9d bf 74 69 84 bf 51 a5 ad bf c9 02 ae 3d
       -1.232993 -1.0344682 -1.3566076 0.08496625
000030 65 97 bf bf 60 94 15 40 af 9d 4c bf cc 32 23 3f
       -1.4968077 2.337181 -0.79928106 0.63749385
000040 a2 56 c4 3e 79 5a ad 3f 8a 7a e6 3d 9a 1a 67 bd
       0.38347346 1.3543235 0.11253841 -0.056421854
000050 7f f5 1d bf cf bf 92 3e c7 63 c9 bd 2c ac 5f 3e
       -0.6170272 0.28661963 -0.09833484 0.21843022
000060 f0 8c 0b bf 41 5c 66 bf 09 81 19 bf a9 46 8b 3f
       -0.5451193 -0.8998452 -0.5996252 1.0880939
000070 1e cb cc 3f 9d b4 11 c0
       1.5999486 -2.2766488

netREN.r.0.bv f4 [30]
000000 68 03 90 ba 96 8d 46 3e d3 84 91 be fd b9 87 3f
       -0.0010987343 0.19389948 -0.2842165 1.0603634
000010 f4 7d 8b bf 08 79 87 3e ec d3 6a 3d 73 b3 34 bd
       -1.0897813 0.26459527 0.05733101 -0.04411645
000020 9c cf 83 3f 34 a5 9b 3e d0 ee 90 3f e7 29 ba 3e
       1.0297732 0.30399477 1.132288 0.36360094
000030 c7 c7 f1 be 91 50 92 3f 64 6e 81 bf f2 ad 72 bf
       -0.4722273 1.1430837 -1.0111814 -0.9479667
000040 61 21 10 bf de 3b 58 3f 11 43 25 3e 60 21 72 bf
       -0.5630093 0.8446635 0.16138865 -0.94582176
000050 06 d7 59 3f eb 8b 71 bf 1b 35 2d be f9 8c 0d bf
       0.85093725 -0.9435412 -0.1691479 -0.5529323
000060 d1 3d ad 3d 15 8c a3 3e e1 90 e4 bd 3c dd 4e bd
       0.08459056 0.31942812 -0.11160446 -0.050503954
000070 92 60 b8 3f 41 2d 17 40
       1.4404471 2.362137

netREN.r.0.bu f4 [2]
000000 38 2a 9a 3f 65 bb c8 3e
       1.2044134 0.3920547

netREN.r.1.X f4 [90, 90]
000000 1b a4 f2 bf bb 52 21 bf 8e 76 8a 3f 02 7f d1 3e
       -1.8956331 -0.6301686 1.081743 0.40917212
000010 bc 23 aa 3b 08 46 0f 40 c2 c9 46 40 35 b9 40 be
       0.005192248 2.2386494 3.1060643 -0.18820651
000020 df 47 b5 3e 80 b9 a1 3e e0 91 97 be 41 d3 36 3e
       0.35406396 0.31586838 -0.2960348 0.17854024
000030 89 1d 94 3f 9f 75 28 3f bc cb 8b be 42 02 be bf
       1.1571513 0.65804476 -0.27303874 -1.4844439
000040 25 08 4c 3f f9 1c 0b bf bb cd e1 3e 41 03 d2 bf
       0.7969993 -0.54341084 0.44102272 -1.6407243
000050 98 44 64 bf 23 38 82 be 87 39 c6 bf 30 a8 20 3f
       -0.89167166 -0.25433454 -1.5486306 0.62756634
000060 27 3a ca bd 5c 65 21 3f 5e b0 ef bf 8e 33 8e be
       -0.09874373 0.6304529 -1.8725698 -0.27773708
000070 6a fa c8 3f c0 8f 68 bd 4d 72 90 bf 79 79 2f 3f
       1.570142 -0.056777716 -1.1284882 0.6854473
000080 56 e6 8b bf d2 2e b1 3f 5f 21 d8 bf 84 c1 8f bf
       -1.0929668 1.3842413 -1.6885184 -1.1230931
000090 90 39 76 3e f6 60 8d be 93 20 b3 bf 49 55 1d 3f
       0.24045396 -0.27613038 -1.3994316 0.6145826
0000a0 1c e5 45 3f cc 02 c5 3d b0 f6 1b 3e cb f2 1d 3d
       0.7730272 0.09619674 0.15230823 0.038561624
0000b0 b8 0f 85 3f f1 47 5e be d4 78 b5 bf ae 65 58 bf
       1.0395422 -0.21707131 -1.4177499 -0.8453015
0000c0 96 d9 e1 be 5e 64 3d bf 2b 10 09 3e 9d 67 04 c0
       -0.44111317 -0.73981273 0.13385074 -2.068824
0000d0 f0 fd 9e 3e 55 9e 80 3f cd 1f c0 bf 72 d0 9b bf
       0.31053114 1.0048319 -1.5009705 -1.2172987
0000e0 a9 f1 ff bf 9b 58 4d bf 95 5b 8e bf c9 68 fe 3e
       -1.9995624 -0.80213326 -1.1121699 0.4968932
0000f0 f7 9b d3 3f ab 07 7b 3f 3c f1 a0 3e 98 91 04 bf
       1.6531972 0.98058575 0.31434047 -0.5178466
000100 d6 08 36 bf 94 c0 5f 3f 5e 7c 22 bf 81 72 26 3f
       -0.7110723 0.87403226 -0.6347102 0.6501847
000110 a0 09 21 3e 20 33 7a bf fe 1f f5 3e cb e3 0a be
       0.15726328 -0.9773426 0.4787597 -0.13563459
000120 e3 5c 9e 3f 4e 00 9b 3f f7 41 08 bf c4 22 c8 bf
       1.2372097 1.2109468 -0.53225654 -1.563561
000130 49 5d 9c 3e 6a 29 fc be 2f 76 ca 3d c8 2f b6 bf
       0.3053992 -0.49250346 0.09885823 -1.4233332
000140 b5 6a b8 bf 7f 05 a1 3d 35 0a e1 bf 58 86 f0 bf
       -1.4407564 0.078623764 -1.758124 -1.8790998
000150 89 41 a1 bf 66 db 21 3e 8f 90 4c bf 16 13 e3 bd
       -1.2598125 0.1580635 -0.7990808 -0.11087625
000160 1e 5c b9 bd c5 b2 ea bf ab 31 ff be 84 4c 6f 40
       -0.09050773 -1.8335806 -0.4984258 3.7390451
000170 d0 8d a0 bf af 16 4e bf 6d 00 fb bf cd 62 64 3f
       -1.2543278 -0.8050336 -1.9609505 0.8921326
000180 4a 59 bf bd a4 86 82 be 61 43 de 3e ca c6 23 3f
       -0.093432024 -0.25493348 0.4341078 0.63975203
000190 f4 e5 a4 bd 9c 26 07 3f 5d 7b 75 3d 6c bc 86 3f
       -0.080516726 0.5279329 0.0599321 1.0526252
0001a0 49 1e 97 3f cc 6e 44 be 8e 84 2b bd 3a 56 44 bf
       1.1806117 -0.1918289 -0.04187446 -0.7669407
0001b0 fd bb 1d bf f9 84 ee 3f 4e d2 b0 3e 8d 9d d1 3e
       -0.6161497 1.863433 0.3453545 0.40940514
0001c0 6a a6 c0 3e b5 d8 28 40 70 bb 7c be ea cc 93 3f
       0.37626964 2.6382267 -0.24680877 1.154691
0001d0 e6 3a 79 bf c7 06 27 bd 01 86 12 3f 8d 38 8d 3d
       -0.97355497 -0.040777948 0.57235724 0.06895552
0001e0 52 87 05 40 bd 5d 1e be e2 ce 20 bf 36 34 73 3f
       2.0863843 -0.15465446 -0.6281568 0.9500154
0001f0 b6 6f ec 3e 12 18 ef 3d e9 0a b2 bf f7 bc f5 bd
       0.4617898 0.11674513 -1.390958 -0.11998933
000200 ee 9e 08 3e 35 7f 83 bf 84 1a a8 3f fd 48 f1 bf
       0.13341877 -1.0273196 1.3133092 -1.8850399
000210 93 94 9b 3f 32 37 e2 3e df a7 a3 3f 2f b3 55 3f
       1.2154716 0.44182736 1.2785605 0.8347654
000220 3b 8a 8d 3f 7a 91 48 bf c2 9c 8d be 3d 01 04 be
       1.105781 -0.7834698 -0.2765866 -0.12891097
000230 b7 8b b6 bf 22 01 b1 bf 38 07 82 be 53 ae d7 bf
       -1.4261388 -1.3828471 -0.25396132 -1.6850075
000240 5d 5b 2b bf c9 de 25 bf 58 0e b6 bd 84 d5 a8 bf
       -0.66936284 -0.6479307 -0.088894546 -1.319016
000250 90 04 aa 3e f6 a3 c3 3f 98 cf a5 bf ec 0b 3c bf
       0.33206606 1.5284412 -1.2953978 -0.7345569
000260 b6 8d 9f 3e 2f 87 5b 3f 8a 1e d3 3f ad 30 9b bf
       0.31162804 0.8575315 1.6493695 -1.212423
000270 5e 39 ee bf 6c 42 9b bc d7 09 b8 be e0 0b 9d be
       -1.8611257 -0.01895257 -0.35945007 -0.30673122
000280 0b 4c 7f bf 43 b8 f6 3f c3 bb cf be b8 85 fc bd
       -0.9972541 1.9274982 -0.40572938 -0.12330192
000290 1b 9a 72 be be 0f c7 3f 81 a2 c1 bf b9 cc c9 be
       -0.23691599 1.5551679 -1.5127717 -0.39414003
0002a0 89 74 ae bf 67 b0 c1 3f 2b eb 07 be 62 28 20 3f
       -1.3629314 1.5131959 -0.13273303 0.6256162
0002b0 5d dc 8c 3f d6 52 05 40 60 21 96 3f d9 c7 75 3f
       1.100475 2.083181 1.1728935 0.9600807
0002c0 39 ec 0e 3f 7e e5 86 3f 6a 89 09 40 1c 7a 6f bf
       0.558292 1.0538785 2.149012 -0.935457
0002d0 cf a9 46 3f e5 ba 67 3f 54 a6 a4 3f c3 c5 2e 40
       0.7760286 0.90519553 1.2863259 2.7308204
0002e0 3b b3 28 bf 50 bd 83 bf 8f 92 a2 be 5f e9 c2 bf
       -0.65898484 -1.0292149 -0.3175244 -1.5227469
0002f0 47 d0 49 3e c9 88 8f bf 61 47 77 bf 32 70 2c bb
       0.19708358 -1.1213619 -0.9659329 -0.002631199
000300 0a 1b 83 be 8f ed b5 3f 26 84 28 bf b0 8f af be
       -0.25606567 1.4213122 -0.6582664 -0.34289312
000310 46 f3 d3 bf 9b 33 19 3f 0c 85 18 bf 70 31 1b be
       -1.6558616 0.5984437 -0.59578013 -0.15155578
000320 5e 11 20 3f 61 05 b9 3d 72 0c 1a c0 84 bd 33 3f
       0.625265 0.09034229 -2.4070096 0.7021105
000330 75 27 8e bf 47 c7 9b bf 7e 7a 0f 40 85 79 34 be
       -1.1105791 -1.217019 2.2418513 -0.17624481
000340 3b 24 fd 3f fe 44 27 bf 4e ba c1 bd 06 a5 ad 3f
       1.9776682 -0.6533965 -0.09459363 1.3565986
000350 46 a1 1b 3e 49 0f a3 bf 7f 75 02 bf 8b 3d 85 bf
       0.1519824 -1.273904 -0.50960535 -1.0409406
000360 83 42 b1 bf 7f 35 16 3e e6 4e 9b 3f 89 33 1f be
       -1.3848423 0.14668845 1.2133453 -0.15547003
000370 68 2b e3 3e f6 a2 26 bb 8a 03 9c bf 74 db ce be
       0.44369054 -0.0025426722 -1.218858 -0.40401804
000380 13 37 e1 3e 93 46 88 3f be fa 01 3e 6b ea ab 3f
       0.4398733 1.0646538 0.12693307 1.3430914
000390 b3 cc 08 bf 13 e1 5a 3f b3 c0 ad bf 1c 91 66 3c
       -0.53437346 0.85499686 -1.3574432 0.014072683
0003a0 db 7b 16 40 e7 6a 84 bf af b4 86 be f9 48 4a bf
       2.3513095 -1.0345124 -0.26309726 -0.790176
0003b0 3e 9a 3c bd e1 4a ed 3d c0 77 6d bf 38 f3 89 3f
       -0.046045534 0.11586548 -0.9276085 1.077735
0003c0 66 22 77 bf 9e d3 47 be 8d 2e 12 40 84 36 e4 bf
       -0.9653686 -0.1951432 2.2840912 -1.7829137
0003d0 ad 55 40 bf da 38 e3 3e 8a d5 14 bd 52 1f 2e be
       -0.7513073 0.44379312 -0.03633646 -0.17004135
0003e0 dc 14 6c bf 69 e7 cf 3f 46 ff f0 bd fd c7 51 bf
       -0.9221933 1.6242496 -0.117674395 -0.8194578
0003f0 8d 3b f7 3e 0c 1d cc bd 2a ec 9f bf 1a 89 a3 bf
       0.4828762 -0.09966478 -1.2493947 -1.2776215

netREN.r.1.Y f4 [30, 30]
000000 cf 2d b5 3e b0 c5 d2 bf 5d fd 08 c0 56 1e bf 3e
       0.35386512 -1.646658 -2.140464 0.37327832
000010 a4 35 47 3e bb e7 ee 3f 4d 00 2c c0 e3 11 4b be
       0.19454056 1.8664469 -2.6875184 -0.19831042
000020 4d f4 7f bf 2c be 72 3f e8 73 6a bf 48 14 48 bd
       -0.9998215 0.9482143 -0.9158311 -0.048847467
000030 7f 2b 0c 40 92 ac 7d 3e 80 58 c3 be ab d3 85 bf
       2.1901548 0.24772862 -0.38153458 -1.0455221
000040 64 a5 5c bf 3f 0c 18 3f ef 60 8e bd 65 a0 53 3f
       -0.86189866 0.59393686 -0.06952082 0.8266662
000050 de 2a c1 be 25 96 6a bf 14 a6 76 3f e5 29 d5 bd
       -0.37728018 -0.9163535 0.96347165 -0.104083814
000060 3c ee e2 3f ee 41 09 bf fe 32 70 be c5 70 f0 3e
       1.7728953 -0.53616226 -0.23456952 0.46961036
000070 82 a1 d6 bf 8e 05 46 3f 92 3b 84 3d 69 66 1e 3f
       -1.6768038 0.77352226 0.06456675 0.61875015
000080 7f b0 0f 3d c8 de f6 3f 42 e6 4c bf 98 9d 08 bf
       0.03508043 1.9286737 -0.80038846 -0.5336547
000090 57 06 fd 3e 7c f5 5c 40 7d 35 d1 bd 9d ca 11 c0
       0.494189 3.4524832 -0.1021528 -2.2779915
0000a0 8c 1b d6 bf fb 71 e5 be 5b ff 4f bf 13 3c 3b bf
       -1.6727157 -0.44813523 -0.81249017 -0.7313854
0000b0 36 bd bc 3f 23 bf f2 bd 5e 71 2e 3f 4c d4 12 bf
       1.4745243 -0.11852863 0.68141735 -0.5735519
0000c0 bf 9c c0 bf a9 0d 1c 3e 60 0d 94 3f 05 62 86 bf
       -1.5047835 0.15239586 1.1566582 -1.0498663
0000d0 54 59 76 bd 9a 08 85 3f d2 0a 86 be 9d 9b 39 3a
       -0.060143784 1.039325 -0.2618013 0.0007080378
0000e0 44 81 44 3f 9f 37 aa be 10 9c 42 3f 92 6c a3 3f
       0.76759744 -0.3324556 0.7601938 1.2767508
0000f0 ef de 2c 40 79 f7 e2 3f 0d 68 bc bb cf 0a bc bf
       2.7011068 1.7731773 -0.0057497085 -1.4690799
000100 a9 fb 22 3f f6 fb bc be b3 4c 74 be b8 f8 8e 3f
       0.6366525 -0.3691098 -0.23857383 1.1169653
000110 4e 49 c7 3f f0 53 ab bf 62 ab 12 3f a9 e1 06 be
       1.5569246 -1.3384991 0.5729276 -0.1317202
000120 51 33 d3 3f b1 af c6 3f 8c 6b a2 bf 73 b0 2d 3f
       1.6500036 1.5522367 -1.2689071 0.67847365
000130 9d d5 8d 3d ce 4a f7 3f 8e c2 de 3e c6 ee 23 bf
       0.06925509 1.9319704 0.43507808 -0.64036214
000140 cf 62 af bf ea 44 15 3e c5 33 b2 be ce ca 0f bf
       -1.3702029 0.1457707 -0.34805122 -0.5616883
000150 06 f9 9c bf 29 1b 1e 3f 52 3c d5 be 51 05 e2 bf
       -1.2263496 0.61760193 -0.41647583 -1.7657872
000160 e6 f6 fb bf 23 85 b1 bf cd bc ba 3d 10 77 79 be
       -1.9684722 -1.3868755 0.09118042 -0.24361825
000170 4b 49 4a 40 e8 13 1d 3f f3 13 a0 be 9a f6 33 3e
       3.1607234 0.613585 -0.3126522 0.1757454
000180 3a 2e b2 3d 66 ec 17 3f f0 de 99 bd be 3a d8 bf
       0.08700223 0.5934509 -0.07513225 -1.6892927
000190 bb 9a b7 3e fa 8d e6 bf f8 12 07 3f 57 c2 40 be
       0.35860237 -1.8012078 0.5276332 -0.18824135
0001a0 62 93 80 3f 18 d3 96 bf e3 90 80 3f 35 8b 4f bf
       1.0044978 -1.1783171 1.0044216 -0.8107179
0001b0 8e 6f 45 bf c6 7d 6e 3f 31 2d 5f 3f 5d b6 d0 bf
       -0.77123344 0.93160665 0.8717833 -1.6305653
0001c0 91 ae 14 3f 61 25 14 3f b1 c3 6e 3f 4b 57 cd bf
       0.5807887 0.57869536 0.9326735 -1.6042265
0001d0 a7 35 9b bf b3 d3 20 bf 9a 3f 98 bf c6 ef 8d be
       -1.2125748 -0.6282303 -1.189441 -0.27721995
0001e0 62 fc 3b 3e 27 64 68 3f 01 3d 74 3f 38 47 27 bf
       0.18357995 0.9077782 0.95405585 -0.65343046
0001f0 7c 60 d3 3f 94 b6 da 3e f0 17 83 3f 10 8f 69 40
       1.651382 0.4271742 1.024168 3.6493568
000200 8b 02 9b bf 01 b9 17 3f 66 d4 33 3f fc b9 e8 3e
       -1.2110151 0.5926667 0.7024597 0.45454395
000210 bc c2 02 40 9a 6a 08 40 84 9e 07 be 12 66 95 3f
       2.0431356 2.1315064 -0.13244063 1.1671774
000220 14 80 bb bf dd 94 bc 3f e1 15 7c bf 8e e9 ad bf
       -1.4648461 1.473293 -0.98470885 -1.35869
000230 68 47 05 c0 5d 89 0f c0 4c cb 0b c0 fc e3 e5 bd
       -2.0824833 -2.242759 -2.1842833 -0.11225125
000240 0c f9 96 bf a0 24 aa 3e f0 ff 85 3f 4c 3d bc 3f
       -1.1794753 0.33231068 1.0468731 1.4706206
000250 28 d6 40 3e f5 02 ff bd 09 5c c9 bf 4c 1f 2d 3e
       0.18831694 -0.12451736 -1.5731212 0.1690647
000260 b6 5b 85 3e 96 b1 ab bf d4 e6 df 3d 9a 8c f6 be
       0.26046532 -1.341357 0.10932699 -0.48154145
000270 93 c2 a5 3e 26 d2 cd 3e c0 57 5e 3f cf 24 de 3f
       0.3237501 0.40199393 0.86852646 1.7354983
000280 29 f4 39 3e 92 64 45 bf 8e b4 e9 bc 9f 7e ce 3e
       0.18159546 -0.77106583 -0.028528478 0.4033098
000290 e9 8d ce bf 8f 2c 62 3e 95 de 58 bf 73 8e ad 3f
       -1.6137058 0.2208731 -0.84714633 1.3559097
0002a0 ce 74 cc 3f f7 26 0e 40 0b 44 8a 3f 41 6a ef 3e
       1.5973146 2.2211282 1.0802015 0.46760753
0002b0 20 26 9d 3f 0f 06 13 bf f6 d7 3c 3f 6e 3c e8 be
       1.227726 -0.5743112 0.7376703 -0.45358604
0002c0 7f 10 8e bf ac aa 49 bf 79 8f 27 3f 57 a0 c8 3e
       -1.1098784 -0.7877605 0.65453297 0.3918483
0002d0 3b b2 b7 be 35 9a 28 40 42 3d 38 3e fc d2 0a be
       -0.35878167 2.634412 0.17992118 -0.13557047
0002e0 c0 20 e1 bf 90 a7 9e bf 21 f5 63 3f 22 c7 04 40
       -1.758812 -1.2394886 0.8904591 2.074654
0002f0 01 46 ee bf 31 84 e5 be bb b3 b2 3f 33 f1 1f 3f
       -1.8615113 -0.44827417 1.3961099 0.62477416
000300 c1 28 eb bd f6 53 23 3d 00 60 35 3f 91 dd ac 3f
       -0.114823826 0.039874993 0.7084961 1.3505117
000310 35 9f a9 bf 90 a1 ed be 08 65 8d 3f d3 5a 32 be
       -1.3251711 -0.46412325 1.1046457 -0.17417459
000320 70 bb e1 3f 91 4c 73 3f 1a 07 cf bf 3b ce 09 c0
       1.7635326 0.95038706 -1.6174042 -2.1532123
000330 79 c9 af bd 7b 3d e1 be 28 fd 82 bf 44 54 12 40
       -0.0858335 -0.43992218 -1.0233507 2.2863932
000340 37 0e 5a bf ea e6 2a 3d cb bd 74 be 88 b2 10 3f
       -0.8517794 0.041724123 -0.23900525 0.5652242
000350 7e ab 00 c0 28 10 ab 3e 53 e2 b1 bf 29 cd 19 bf
       -2.010467 0.33410764 -1.3897194 -0.60078675
000360 33 54 9a be 66 db 9f 3f 9c 43 05 bf 31 66 35 bd
       -0.30142364 1.248883 -0.5205629 -0.04428691
000370 80 60 9b 3e 04 e2 40 3f b1 48 b8 be 6d 76 48 3e
       0.3034706 0.7534487 -0.3599296 0.19576426
000380 a7 5c fd 3f 0d 8d 47 3f 7e 56 87 3f 19 a3 d1 bf
       1.97939 0.779496 1.057327 -1.6377898
000390 d6 82 bb be 44 3e a7 3f 4c 5d 5b 40 3f 7e b7 3b
       -0.36623257 1.3065877 3.4275694 0.0055997665
0003a0 15 d1 1a 3e 56 7d 5c 3f 8e 2c c7 be b8 35 08 40
       0.15118821 0.8612875 -0.3890118 2.1282787
0003b0 75 6f 79 3f 79 e4 f1 3f e0 33 51 be ac 28 e7 bf
       0.97435695 1.8897849 -0.20429945 -1.8059287
0003c0 cc 59 c6 bf b4 4b 7f bf fe 6e de 3f a9 74 ba bc
       -1.5496154 -0.9972489 1.7377622 -0.022760706
0003d0 33 f9 23 3f bd 47 e8 3e 74 86 4e 3f fe bd 43 3f
       0.6405212 0.45367232 0.8067391 0.7646178
0003e0 ba 2a f4 3c c7 19 50 c0 c6 ae cd 3e b5 db 54 bf
       0.02980553 -3.2515733 0.40172404 -0.83147746
0003f0 32 f5 1f 3f 85 a6 a6 be 00 86 9c 3f d9 85 91 bf
       0.62483513 -0.3254892 1.2228394 -1.1368972

netREN.r.1.B2 f4 [30, 6]
000000 48 49 4c 3f 2f 63 a4 bd 83 a2 48 3f ed 70 16 3f
       0.7979932 -0.0802673 0.78372973 0.5876606
000010 e3 eb c5 3f ca 37 80 bf 86 ad 95 bd 5b c7 e4 bf
       1.5462612 -1.0017025 -0.073084876 -1.7873338
000020 1d 86 5d bf 87 c4 ab 3f 1d 17 31 bf 7e 07 3f bf
       -0.86532766 1.341935 -0.69175893 -0.7462081
000030 a1 86 bd be a2 db df 3c 58 43 06 bf 7a de f3 be
       -0.37016776 0.027326409 -0.5244651 -0.47630674
000040 38 60 8e 3f e3 b2 84 be ba ee 0a bf ee b3 2a bf
       1.1123114 -0.2591773 -0.5427052 -0.666808
000050 a6 7c 3e 3e f7 2a 6e 3f 65 57 02 40 28 f4 39 3f
       0.18602237 0.9303431 2.0365841 0.7263818
000060 2e bc cb 39 dc 41 27 3f f2 24 82 bf 66 d8 30 bf
       0.00038859382 0.6533487 -1.0167525 -0.690802
000070 8f 13 31 bf 2a d7 6d 3f 7e 62 93 bf fc 23 49 bf
       -0.6917047 0.9290644 -1.1514432 -0.7857053
000080 18 b3 d7 3e a3 c6 06 bf e1 0e e9 3d a5 c5 04 bf
       0.42128825 -0.52646846 0.11379791 -0.5186408
000090 2e 12 6d 3f 5d 00 ba 3f df 64 de be ee 34 09 bf
       0.92605865 1.4531361 -0.43436334 -0.5359639
0000a0 4b ff d0 bf c2 15 c3 bf 3d 91 cd be 01 08 ca 3f
       -1.6327909 -1.5241015 -0.4014987 1.5783693
0000b0 bf bf 70 3f aa 0f c7 3e 89 77 a9 bf 29 8b 6e 3f
       0.9404258 0.38879138 -1.3239604 0.9318109
0000c0 c4 84 e0 3f 3b 12 f0 3f a7 f9 cb bf f7 e6 b3 bf
       1.7540517 1.8755563 -1.5935563 -1.405486
0000d0 75 e2 85 3e 88 e7 01 bf dc d2 4f be 44 4c 34 bf
       0.26149336 -0.50743914 -0.2029528 -0.7042887
0000e0 47 bc 39 bf b8 4b e2 3f da 5a d3 3f 42 e8 b9 be
       -0.72552913 1.7679358 1.6512101 -0.3631001
0000f0 9a 68 0a bf c8 17 9c 3f 2e 16 c7 3f 1b 56 74 3f
       -0.5406586 1.2194757 1.5553644 0.95443887
000100 92 22 f8 bd ee 9e c0 bd 89 78 d7 3f 13 46 99 bf
       -0.12115969 -0.094053134 1.683366 -1.197451
000110 b6 19 da 3e f6 cf a8 3e 99 10 a7 be ed 1c 2b 3f
       0.4259774 0.32971162 -0.3262985 0.6684101
000120 61 50 4d bf d6 ff 2e 3e 41 65 ed bf 16 17 ab 3f
       -0.80200773 0.17089781 -1.8546525 1.336642
000130 f0 d7 8e bf 7e d5 ad bf c2 92 21 3f 4a 0e c6 3f
       -1.1159649 -1.3580778 0.6311456 1.5473111
000140 9f 42 81 3f e3 76 74 bf 32 d2 9a bd c2 65 06 3f
       1.0098456 -0.95493907 -0.07559623 0.5249902
000150 92 10 d9 3f a7 67 e6 be 2a ce ec bf d2 ff ba be
       1.6958182 -0.45000955 -1.8500416 -0.365233
000160 f7 f3 9c bf 88 92 b4 3f c7 6b 8d bd 93 b0 18 3e
       -1.2261952 1.4107218 -0.069053225 0.14911108
000170 0e 89 8c 3f dd f3 13 be ad a2 0d c0 52 97 ae 3f
       1.0979326 -0.14448495 -2.213054 1.3639929
000180 da 4e b4 3f 1f 76 37 bf 88 0e dc be 0d ba f2 3d
       1.4086564 -0.71664613 -0.42979836 0.118518926
000190 80 40 a0 3f 5d 79 a5 bf d5 cf de 3f a8 33 c8 3f
       1.2519684 -1.2927662 1.7407175 1.5640764
0001a0 87 f7 12 40 6a 30 05 be 24 0e 7e bd 94 94 58 be
       2.2963579 -0.1300675 -0.062025204 -0.21150428
0001b0 44 e0 5f bf b4 db a0 be 2d 5b f1 3e ff c1 32 bf
       -0.8745158 -0.3141762 0.47139874 -0.69827265
0001c0 af 08 f0 bf 33 d6 7b 3e 43 d3 89 3f 7a ba 02 be
       -1.875265 0.2459343 1.0767597 -0.12766448
0001d0 13 d6 14 c0 8e ef a4 3e 25 d6 91 bf b5 9a 83 be
       -2.325566 0.32214016 -1.1393477 -0.2570397
0001e0 bc 86 a8 be b1 7e fc bf ac 42 57 be c4 59 13 40
       -0.32915294 -1.9726163 -0.21021527 2.3023539
0001f0 d1 20 09 be 49 4f f2 3e ff 81 39 3f dd d7 6b 3e
       -0.13391425 0.47326115 0.72463983 0.23031564
000200 79 3e 69 be 92 d5 56 bf 57 3e b7 3e 17 7a f1 bf
       -0.22777738 -0.8391963 0.3578975 -1.8865384
000210 26 7d e3 be bc 3f 6c bf ad 67 c3 3e fd 06 2a 3e
       -0.44431418 -0.9228475 0.38165036 0.16604228
000220 ea da 3b 3f d4 c3 eb bd d1 d9 0e bf 6c 3a 35 40
       0.7338091 -0.115119606 -0.5580111 2.8316908
000230 29 0c 62 bf d7 14 1a bf 95 37 07 40 48 67 8d bf
       -0.88299805 -0.6018805 2.1127675 -1.1047144
000240 bb 0c bc be fb 84 2a 40 5a 25 b0 3e 9b ab 07 bc
       -0.36728463 2.6643665 0.34403497 -0.00828066
000250 86 65 96 3f f5 41 65 be b5 01 2d 3e e4 2c 28 3f
       1.1749732 -0.22388442 0.16895182 0.656935
000260 9a a1 12 3e 1d c9 2d be f2 8c 2c bf 00 ae ff 3e
       0.14319459 -0.1697125 -0.67402565 0.4993744
000270 dc ab a7 3f 52 56 6b be 48 70 11 40 3f 3b a9 bf
       1.3099322 -0.22982147 2.272478 -1.3221205
000280 68 34 a0 bf 01 12 b6 3f 8a a2 25 3f 28 7a 6a bf
       -1.2515993 1.4224244 0.6470114 -0.91592646
000290 05 f4 d4 bd 02 fc 9d 3e b3 60 c7 be f8 93 1b be
       -0.103981055 0.3085633 -0.38940963 -0.15193164
0002a0 20 df ae be ab 37 b7 3d 4a 50 41 be 33 66 41 3e
       -0.34154606 0.08946165 -0.18878284 0.18886642
0002b0 e1 ef 98 bf 4d 59 aa 3f 60 d5 ca 3e 7d 8b 13 c0
       -1.1948205 1.3308502 0.39615917 -2.3053887
0002c0 5d 56 c2 bc 88 9a ce 3f cf 74 e2 3e 67 34 4b bf
       -0.023722822 1.6140909 0.44229743 -0.79376835

netREN.r.1.C2 f4 [2, 30]
000000 00 fd 02 3e de 76 64 3f f1 f9 c1 3e f6 3b 0c 3f
       0.12791824 0.89243877 0.37886003 0.54778993
000010 eb e4 17 bf 24 96 fe 3f 35 5b 0e be 2e 18 88 bf
       -0.59333676 1.9889569 -0.1390198 -1.0632379
000020 aa 4b b4 3f 65 c2 21 40 a9 5f 8f 3f 6d 32 22 3f
       1.4085591 2.52749 1.1201068 0.63358194
000030 8c c4 b5 3e 4b 0c 9d bd 03 e3 42 bf 08 48 cf 3e
       0.35501516 -0.0766836 -0.7612764 0.40484643
000040 7d 53 20 bf 62 fa 01 bf 1e c7 f3 3f 5b 77 57 3e
       -0.62627393 -0.5077268 1.9045141 0.21041624
000050 3f 7a 7e be a1 14 9a 3f 09 c6 1c 3f 1d ce 5d bf
       -0.2485132 1.2037545 0.6123968 -0.8664263
000060 b5 f9 43 3f 8d 3c d6 3f 2d 1d 23 bf 26 57 8e 3f
       0.765529 1.6737229 -0.63716394 1.1120346
000070 bf 03 72 3f fb 5a af 3f 37 82 3e 3f 6e ba 4d 3f
       0.94536966 1.369964 0.7441744 0.80362594
000080 98 28 85 bf 01 19 b3 bf 64 3b 1c c0 61 59 1c be
       -1.0403013 -1.3992006 -2.441125 -0.1526847
000090 20 fd ed 3e af fc f5 3f e4 85 e1 bf 94 26 27 bf
       0.46482182 1.9217738 -1.7618985 -0.6529324
0000a0 bc 4b bd 3f 02 f5 d6 bf 5c 73 d4 3f 6d 6c c4 3e
       1.4788737 -1.679352 1.6597705 0.38363972
0000b0 c5 d4 a3 bf b7 6e 6b bc 83 86 1f bf 7e b4 95 3f
       -1.2799307 -0.014369658 -0.62314624 1.1695707
0000c0 7f 76 4c bf 92 50 a2 bf aa f0 ac 3e 9e 75 f6 bb
       -0.7986831 -1.2680838 0.33777362 -0.0075213453
0000d0 71 28 7d bd b4 fb 60 3f 6f 2d b7 bc 08 87 82 3f
       -0.061806146 0.8788407 -0.022360532 1.0197458
0000e0 4f b6 22 bf bb e3 1d bf d1 70 79 be 31 e4 a1 be
       -0.6355943 -0.61675614 -0.24359442 -0.3161941

netREN.r.1.D21 f4 [2, 30]
000000 58 0b 8f be c1 53 89 3d a8 4a d0 be 46 98 af bf
       -0.27938342 0.06705428 -0.40681958 -1.3718345
000010 2d fc d7 bd f7 57 36 3e f6 c8 ac 3f d2 f3 07 bd
       -0.105461456 0.17806993 1.3498828 -0.03319151
000020 b8 20 43 3e 56 ec 1a 40 37 8e cd 3f d0 c5 44 3f
       0.1905545 2.4206748 1.6059026 0.7686434
000030 f2 2f e1 3e 93 3b 13 3f 0c 5d 23 3f 17 a5 0f 40
       0.43981892 0.5751278 0.63813853 2.2444513
000040 73 9b 83 3f 47 e0 34 3f e2 de 0c bf 3c 7f 0a 3f
       1.0281814 0.7065472 -0.5502759 0.54100394
000050 18 6d 13 3d 90 51 18 40 21 54 90 bf 62 8f 83 3f
       0.03599271 2.3799782 -1.1275674 1.0278132
000060 d6 de 49 3d 96 7e 81 bc 07 cb 64 3f f7 cc 12 40
       0.04928478 -0.015807431 0.89372295 2.29376
000070 b6 f1 e6 3e 84 55 a9 3c 55 1d 7b bf 74 2c d0 bf
       0.45106286 0.02067066 -0.9809163 -1.6263566
000080 dc 27 93 be b9 cb 4d bc ed b1 ae 3d 2b a7 c9 bf
       -0.28741348 -0.012560778 0.085300304 -1.5754141
000090 34 7c 4c bf 9a c1 a3 bf ae 8a 2e 3f ba f8 6c bf
       -0.7987702 -1.2793458 0.6818036 -0.92567027
0000a0 58 19 13 bf 0f 20 4e bd 87 29 01 c0 ed c2 66 bf
       -0.57460546 -0.050323542 -2.0181596 -0.90141183
0000b0 28 3c 84 3f 24 bb b0 3f 01 38 3d be c1 d8 82 bf
       1.0330858 1.3807111 -0.18478395 -1.0222398
0000c0 8f 55 d3 bf 8e a3 c2 bf 75 16 b1 bf f0 0e 44 3f
       -1.6510485 -1.5206163 -1.3834978 0.7658529
0000d0 c1 35 44 bf 7e c1 db be 36 af e0 3e 1e 5e 23 3e
       -0.7664452 -0.4292106 0.43883675 0.15953872
0000e0 06 c9 8c 3e 05 18 cb be e8 d6 4e bf 88 7f 3a 3e
       0.2749712 -0.39666763 -0.8079667 0.18212712
