trained_models/NeurSLS-distributedREN_tmp.pt (torch, 26971 bytes, 49 tensors)

y f4 [4]
0	0x3b0c7c08	0.0021436233
1	0x3bfb6fe8	0.0076732524
2	0x3ba66b65	0.0050787204
3	0x3a175460	0.0005772766

r.0.X f4 [24, 24]
0	0xbf9d8315	-1.2305628
1	0xbd842178	-0.06451696
2	0xbf53c5e3	-0.82723826
3	0xbf204641	-0.626072
4	0x3f835885	1.0261389
5	0xbfdb0e27	-1.7113694
6	0xbf46c797	-0.776483
7	0xbf3fcd93	-0.74923056
8	0x3dfdc437	0.12390941
9	0xbd4a4d55	-0.049390156
10	0xbe4059e4	-0.1878429
11	0xbe413856	-0.18869147
12	0xbce9e5af	-0.028551904
13	0x3e236024	0.15954643
14	0xbe56073c	-0.20901197
15	0x3ea3f956	0.32026166
16	0xbe04be07	-0.12963115
17	0xbe562618	-0.20912969
18	0xbdbfeb98	-0.09371108
19	0xbf801cc0	-1.0008774
20	0xbe2191ed	-0.15778323
21	0x3eeeaaca	0.46614677
22	0x3e8c3c5e	0.27389807
23	0xbe3d31b5	-0.18475993
24	0x3f8dd53c	1.1080699
25	0xbe3bf02a	-0.18353334
26	0xbfc31637	-1.5241154
27	0xbf613144	-0.879658
28	0x3f22bd08	0.6356969
29	0xbf65b6ce	-0.8973206
30	0xbfbc6be7	-1.4720429
31	0x3efb96d4	0.4913851
32	0x3f47347e	0.7781447
33	0xbee47d03	-0.44626626
34	0xbd53de80	-0.051725864
35	0xbfa1b04e	-1.2631929
36	0x3e281db8	0.16417587
37	0xbd8f38fb	-0.0699329
38	0x3f19fdf6	0.6015314
39	0x3e9af645	0.30266014
40	0xbf03b4c6	-0.51447713
41	0xbf390f45	-0.72288924
42	0xbf04052c	-0.5157039
43	0xbf70e27e	-0.940956
44	0x40511738	3.2670422
45	0xbe85ef30	-0.26159048
46	0x3fab418c	1.3379378
47	0xbfc68ed8	-1.5512342
48	0xbf71f74c	-0.9451797
49	0xbeaace68	-0.333606
50	0xbe9588f3	-0.29206046
51	0xbeef4583	-0.4673272
52	0xbe82ff44	-0.25585377
53	0x3f027c09	0.5097051
54	0x3f1a6e32	0.60324395
55	0x3fc06c28	1.5033007
56	0x3f04d047	0.51880306
57	0xbe9d0424	-0.30667222
58	0xbdef06ba	-0.11671205
59	0x3f799808	0.97497606
60	0xbe0cad04	-0.13737875
61	0x3e1c1154	0.15240985
62	0xbfd9bd8d	-1.7010971
63	0x3f15b572	0.5847999
64	0xbeb2e36c	-0.34939134
65	0xbff5c7e2	-1.9201624
66	0x3d5babc2	0.053630598
67	0x3e778c33	0.24174576
68	0x3f8daf5d	1.1069142
69	0xbe870af7	-0.26375553
70	0x3f234937	0.6378359
71	0x3f49ff15	0.7890485
72	0xbfcd1668	-1.6022463
73	0xbf212f72	-0.6296302
74	0xbe800136	-0.25000924
75	0xbf1c6f60	-0.61107445
76	0xbfc52c5b	-1.5404161
77	0xbf352fe2	-0.7077619
78	0x3e69622a	0.22791353
79	0xbf6165ba	-0.8804585
80	0xbf564e24	-0.83712983
81	0x3f6d7eb3	0.9277145
82	0xbea0b6d1	-0.31389478
83	0x3fad7998	1.3552732
84	0xbd4c1edb	-0.049834114
85	0xbc53afcd	-0.012920332
86	0xbe1e239e	-0.15443274
87	0xbfafe127	-1.3740586
88	0xbf016f7a	-0.50560725
89	0xbf543567	-0.82893986
90	0xbe95e687	-0.2927744
91	0x3ec09af8	0.37618232
92	0xc016176e	-2.34518
93	0x3eb2479a	0.34820253
94	0xbea82ebd	-0.32848158
95	0x3f9d3dfb	1.228454
96	0xbedbb088	-0.4290812
97	0x3f99c816	1.2014186
98	0x3f88b637	1.0680608
99	0xbf3cffeb	-0.73828
100	0x3de84192	0.113406315
101	0xbf6263da	-0.8843361
102	0xbe3e7cdf	-0.18602322
103	0x3f8c44c4	1.0958486
104	0x3e795e78	0.24352443
105	0xbf4fef6b	-0.812247
106	0xbf1612f6	-0.5862268
107	0x3f4c7f98	0.7988219
108	0xbd90abda	-0.07064028
109	0xbf2fa78c	-0.6861503
110	0xbfb21927	-1.3913926
111	0x3f288767	0.6583161
112	0x3fad360e	1.3532121
113	0xbe831ade	-0.25606436
114	0x3f8d9882	1.1062167
115	0x3f66c170	0.9013891
116	0x3f159834	0.5843537
117	0xbf8740be	-1.0566633
118	0x3f515e38	0.8178439
119	0x3ec71ef9	0.38890818
120	0x3fef2e54	1.8686013
121	0x3f192a50	0.5983019
122	0x3dc5a378	0.0965032
123	0x3fd46c0b	1.6595472
124	0xbfd3587f	-1.6511382
125	0x40248658	2.5706997
126	0x3f310042	0.6914102
127	0x3f5f2353	0.87163275
128	0x3e5c44c3	0.21510606
129	0xbe0e4473	-0.13893299
130	0x3f4ce211	0.8003245
131	0x3f018499	0.5059295
132	0x3ced89a1	0.02899629
133	0xbe44f312	-0.19233349
134	0x3f410910	0.75404453
135	0xbe7749e3	-0.2414928
136	0xbff2b6c5	-1.8962027
137	0xbf807be5	-1.003781
138	0xbdc632c3	-0.09677651
139	0x3fcbfbae	1.5936182
140	0x40335289	2.8019125
141	0x3ec4550b	0.38346133
142	0x3fb19923	1.3874859
143	0xbf20aa80	-0.6276016
144	0xbf60f263	-0.8786985
145	0xbeae5f91	-0.34057286
146	0x3e925425	0.28579822
147	0x3f093fd8	0.5361304
148	0x3fe67147	1.800332
149	0xbf55817e	-0.83400714
150	0x3f10f531	0.5662413
151	0xbdfa8094	-0.122315556
152	0xbe44b311	-0.19208933
153	0xbdab6192	-0.083682194
154	0xbd93a003	-0.07208254
155	0xbe1cdc1f	-0.15318345
156	0xbe3715f3	-0.17879467
157	0x3d8fcf70	0.070219874
158	0xbf1e9740	-0.6194954
159	0x3f38510f	0.71998686
160	0x3eceae24	0.40367234
161	0xbf284169	-0.6572481
162	0x3b4d5cd3	0.0031335845
163	0xbf9f806b	-1.2461065
164	0xbf2048c3	-0.62611026
165	0xbee99cbe	-0.45627397
166	0x3ea0db2c	0.31417215
167	0x3eeb0649	0.45903233
168	0x3ed8b350	0.42324305
169	0x3f05a57c	0.52205634
170	0x3f95b7ce	1.1696718
171	0xbfbe5e23	-1.4872478
172	0xbf83f161	-1.0308038
173	0xbf95a9f1	-1.1692487
174	0x3f4215e5	0.7581466
175	0xbedde26c	-0.4333681
176	0xbe792bd8	-0.24333131
177	0x3e6993b9	0.22810258
178	0x3cc66948	0.024220124
179	0x3ff3da12	1.9050925
180	0xbd379e2e	-0.044828586
181	0x3e1e5b37	0.15464483
182	0x3ebedc5f	0.37277505
183	0xbf772727	-0.96544117
184	0x3f02da0a	0.5111395
185	0x3eb75a9a	0.3581131
186	0x3fa107ae	1.2580469
187	0x3f78abdf	0.97137254
188	0xbf52dae9	-0.8236528
189	0x3fc1d4c8	1.5143061
190	0xbeb895df	-0.36051843
191	0x3f615053	0.8801319
192	0x3f0e1a85	0.55509216
193	0x3fa9a104	1.3252263
194	0x3f33d15b	0.70241326
195	0xbf9ca011	-1.2236348
196	0xbeaa6704	-0.3328172
197	0xbff28ad5	-1.8948618
198	0xc00c1317	-2.1886652
199	0xbf4c462c	-0.79794574
200	0xbf70bcea	-0.9403826
201	0x3f27701c	0.6540544
202	0xbf8f1049	-1.1176845
203	0x3f4fe310	0.81205845
204	0x3ea0b3fc	0.31387317
205	0xbf2b7a2f	-0.6698331
206	0xbea64feb	-0.32482848
207	0x3f0ccd1c	0.5500047
208	0x4002e611	2.0452921
209	0x3ea96d07	0.33090994
210	0x3d5a5393	0.05330236
211	0x3fd633ae	1.6734521
212	0xbf380376	-0.7188028
213	0x3feb3581	1.8375703
214	0x40229f1d	2.5409615
215	0xbd54f88e	-0.051994853
216	0xbd6eaa13	-0.058267664
217	0x3f9e5bdf	1.2371787
218	0x3d9824e3	0.074289106
219	0x3e59248b	0.21205346
220	0x3f2eb619	0.6824661
221	0xbf8542f6	-1.041106
222	0x3fe35250	1.7759495
223	0x3ff827b2	1.9387114
224	0x3fb18a89	1.3870403
225	0xbfe56d72	-1.7924025
226	0x3f82f65a	1.023143
227	0xbf84212e	-1.0322626
228	0xbf011b0d	-0.504319
229	0x3d404502	0.04694081
230	0xc0002d1b	-2.002753
231	0xbe734703	-0.23757558
232	0xbf88a3c9	-1.0674983
233	0xbf7d99be	-0.99062717
234	0x3fe6f069	1.8042117
235	0xbfb241d2	-1.3926337
236	0x4026154b	2.5950496
237	0xc014adf9	-2.3231184
238	0xbf79fc65	-0.9765075
239	0x3ebaa277	0.36452076
240	0x3f71d55b	0.9446618
241	0x3f9cee5b	1.226024
242	0x3f23e3fc	0.6401975
243	0xbe89af55	-0.2689158
244	0xbcb0f8e4	-0.021603055
245	0xbdb1e422	-0.08686091
246	0x3dcfa318	0.101385295
247	0xbe59e6fb	-0.21279518
248	0x3ecc8036	0.39941567
249	0xbe84eb7e	-0.25960916
250	0x3ebb2adb	0.36556134
251	0x3f9cea99	1.2259094
252	0x3d0a8116	0.033814512
253	0x3e865383	0.2623559
254	0xbe8c31da	-0.27381784
255	0xbe01dd45	-0.12682064

r.0.Y f4 [8, 8]
0	0xbf6323e8	-0.88726664
1	0xbe768551	-0.24074294
2	0xbeabc419	-0.33548048
3	0x3e8c9367	0.2745621
4	0x3ed0f28b	0.40810046
5	0x3f9c4132	1.2207396
6	0xbf874a6e	-1.0569589
7	0x3f23103a	0.63696635
8	0xbe16433a	-0.14674082
9	0x3f565353	0.8372089
10	0x3f62fe66	0.8866943
11	0xbf7b6d3f	-0.9821357
12	0xbf40adda	-0.75265276
13	0xbf6ee6d4	-0.93320966
14	0xbe9d281f	-0.30694672
15	0xbf7c8509	-0.98640496
16	0x3fba84a8	1.4571733
17	0xbf4f7d9c	-0.8105104
18	0x3f7ba3f2	0.98297036
19	0xbf8b18ac	-1.0866904
20	0x3da72eeb	0.08163246
21	0x3f4daa51	0.8033801
22	0x3eb4255b	0.3518475
23	0x40144ef5	2.3173192
24	0xbfacd88c	-1.3503585
25	0x3ef9f6cf	0.48821113
26	0x3ef97ebb	0.487295
27	0xc0321952	-2.7827954
28	0x3fd6fe75	1.6796404
29	0xbec0150d	-0.3751606
30	0xbf51fccf	-0.8202638
31	0xbf1cdc89	-0.6127401
32	0xbf75b620	-0.95981026
33	0xbfba8c3d	-1.4574047
34	0x3f98092b	1.1877798
35	0xbf638dcd	-0.88888246
36	0xbf598fc8	-0.8498502
37	0xbef3dd2c	-0.47629678
38	0x3f1e0c6e	0.61737716
39	0xbfc90eca	-1.5707638
40	0xbf4758e0	-0.7786999
41	0xbfbf0816	-1.4924343
42	0xbea2b6b6	-0.31780022
43	0xbe3dd7da	-0.18539372
44	0xbf0af76d	-0.5428379
45	0x3fa65526	1.2994735
46	0xbfb218a8	-1.3913774
47	0x3d9c43d8	0.07630128
48	0xbfd7ba73	-1.6853775
49	0xbd12e4f7	-0.03586289
50	0xbeb3c59e	-0.35111707
51	0xbff0a5bd	-1.8800579
52	0xbf34e796	-0.7066587
53	0xbf410ae1	-0.75407225
54	0x40055f84	2.0839548
55	0x3e9547bb	0.29156289
56	0x3f119fb8	0.56884336
57	0x3fe9ca6c	1.8264899
58	0x3fd47315	1.659762
59	0x3f965970	1.1746044
60	0xbde78b1c	-0.1130583
61	0x3fa0ace4	1.2552762
62	0x3eba0a61	0.36336043
63	0x3f551134	0.83229375

r.0.B2 f4 [8, 6]
0	0x3f831ca7	1.0243119
1	0xbebd352b	-0.36954626
2	0x3fed020c	1.851625
3	0xbef1fcff	-0.47263333
4	0x3fcaa28e	1.5830858
5	0x3f5fa32a	0.87358344
6	0x3e3cafd0	0.18426442
7	0x401bb9fe	2.433227
8	0xbe31c9a4	-0.17362076
9	0xbe7d388c	-0.24728602
10	0x4001c9f0	2.0279503
11	0xc03364f6	-2.8030372
12	0x3f578386	0.84185064
13	0x3f3a304a	0.72729933
14	0xbed3a157	-0.4133403
15	0x405648ac	3.3481855
16	0xbe209848	-0.1568309
17	0xc01ba63e	-2.4320216
18	0x3f4b44e8	0.7940202
19	0x3eaadf58	0.33373523
20	0x3f4f06f1	0.80869967
21	0x40183d3e	2.378738
22	0xbf0920f1	-0.5356589
23	0x3dc5b8d4	0.09654394
24	0xbeaecf73	-0.34142646
25	0x4015dcdc	2.3416052
26	0xbe686741	-0.22695638
27	0x3eefb6ab	0.46819052
28	0x3e700f50	0.23443341
29	0x3fe17b55	1.7615763
30	0xbf9f649b	-1.2452577
31	0x3d98104f	0.074249856
32	0xbfb2efd2	-1.3979437
33	0x3f3731a6	0.7156013
34	0x3fc46ba8	1.5345354
35	0xbf19cab0	-0.600749
36	0xbf890ec8	-1.0707636
37	0x3fc81283	1.5630649
38	0xbf48a8d3	-0.78382605
39	0xbe898013	-0.26855525
40	0xbf962033	-1.1728576
41	0xbe612368	-0.21986163
42	0x3f6a68b1	0.91565996
43	0x402ea5c9	2.7288687
44	0xbf47cb7c	-0.7804487
45	0xbf844689	-1.0334026
46	0xbf27ee08	-0.6559758
47	0x3f26e082	0.6518632

r.0.C2 f4 [2, 8]
0	0xbf2b91e7	-0.67019504
1	0x3e6072d4	0.21918803
2	0x3f8366de	1.0265768
3	0x3d3020ab	0.042999905
4	0x3f127359	0.57207257
5	0x3f10fb65	0.566336
6	0x3dd9c54f	0.10633337
7	0x3ead2ae1	0.33821777
8	0xbecf2bd2	-0.4046312
9	0x3ef6be21	0.48191932
10	0xbf939ba2	-1.153187
11	0xbf860d99	-1.04729
12	0x3e9a0906	0.3008501
13	0x3f18bace	0.5966004
14	0x3f6224a2	0.8833715
15	0xbf371b93	-0.7152645

r.0.D21 f4 [2, 8]
0	0x3ff95bea	1.9481175
1	0x3f9bfed4	1.2187142
2	0x3dcb614f	0.099306695
3	0xbe10e01f	-0.14147995
4	0xbefcaf52	-0.4935251
5	0x3fb383f4	1.4024644
6	0x3f0b1381	0.54326636
7	0x3f8bf99c	1.093555
8	0xbcdf101b	-0.02722936
9	0x3f4ab62b	0.79184216
10	0x3fc77200	1.5581665
11	0x40053777	2.0815103
12	0x401cfd65	2.452966
13	0xbedc8de9	-0.4307702
14	0x3eaad223	0.33363447
15	0x3f36f88d	0.7147301

r.0.Z3 f4 [4, 2]
0	0x40068821	2.1020586
1	0xbe9959a9	-0.29951218
2	0x3f3112cf	0.69169325
3	0x3f0f043e	0.5586585
4	0x3f26f985	0.65224487
5	0x3f5e51b9	0.8684345
6	0xbe80587c	-0.25067508
7	0x3bf43eea	0.007453789

r.0.X3 f4 [2, 2]
0	0x3d3eb648	0.046560556
1	0x3e93e18b	0.28883013
2	0xbf678237	-0.9043307
3	0x3e84f22f	0.2596602

r.0.Y3 f4 [2, 2]
0	0xbebb3bee	-0.3656916
1	0x3ed294ed	0.41129246
2	0xbeefa1ba	-0.46803075
3	0x3fc10474	1.5079484

r.0.D12 f4 [8, 6]
0	0x3ffaaef7	1.9584645
1	0x3f07b08e	0.53003776
2	0xbda918d6	-0.0825669
3	0x3f3b8e9f	0.732645
4	0xbf7282cd	-0.94730836
5	0xbf8d9b7a	-1.1063073
6	0x3ed87d2f	0.42283008
7	0xbf1159d3	-0.56777686
8	0x3fe7a9b5	1.8098665
9	0x3efeab0f	0.49739882
10	0x3f6cf790	0.9256525
11	0x3fee13ac	1.8599753
12	0x3ec17311	0.377831
13	0x3f5c598d	0.86074144
14	0xbce35c34	-0.027753927
15	0xbefdd12a	-0.49573642
16	0x3fbc66cd	1.4718872
17	0x3ee7bb8a	0.45260268
18	0x3e2ef9a1	0.17087413
19	0x3f988fca	1.1918881
20	0x3fb50eec	1.4145179
21	0xc01bc49e	-2.4338756
22	0xc01bc3bc	-2.4338217
23	0xbe58321a	-0.21112862
24	0xbf2ca235	-0.6743501
25	0x400f2c25	2.2370694
26	0xbf263e2b	-0.6493861
27	0x3ea8bb69	0.32955483
28	0x3ff174ff	1.8863829
29	0xbea087c1	-0.31353572
30	0x3fe7d26b	1.811109
31	0xbfd6ad45	-1.6771628
32	0xbf4444eb	-0.7666766
33	0xbed89e16	-0.4230811
34	0xbe90b90c	-0.2826618
35	0x3eed7899	0.4638107
36	0x3fdf9ebb	1.7470316
37	0xbfdff234	-1.749579
38	0x3f03e654	0.5152333
39	0x3f9cb7b2	1.2243559
40	0xbe256cf8	-0.1615485
41	0x3f09038e	0.5352105
42	0x3f861f53	1.0478309
43	0xbfb49b0f	-1.410982
44	0xbf81be3d	-1.0136181
45	0x400d5a87	2.2086504
46	0xbf1dc218	-0.6162429
47	0xbfd13eb4	-1.634726

r.0.bxi f4 [8]
0	0x3f8706de	1.0548971
1	0xbf11348c	-0.56720805
2	0x3f1a6f2d	0.6032589
3	0x3fe2347b	1.7672266
4	0xbf156aad	-0.583659
5	0x3f973538	1.1813116
6	0xc0249036	-2.571302
7	0x3dbe9206	0.093051955

r.0.bv f4 [8]
0	0x3f93875a	1.1525681
1	0xbfb55b62	-1.4168513
2	0xbed68b95	-0.41903368
3	0x404fcd0b	3.2468898
4	0xbe9c833f	-0.30568883
5	0x3d796472	0.060886808
6	0x3e8f422d	0.27980176
7	0x3f60cc95	0.8781217

r.0.bu f4 [2]
0	0xbe2aa686	-0.16665086
1	0x3ef2869e	0.4736833

r.1.X f4 [24, 24]
0	0x3ce68401	0.028139116
1	0x3e21ac0e	0.1578829
2	0x3f9a00dc	1.2031512
3	0xbfa30a62	-1.2737544
4	0xc02a251d	-2.6585152
5	0x3ff69a92	1.9265921
6	0x3f373f2a	0.71580756
7	0xbf38ca3e	-0.721836
8	0xbfebee52	-1.8432105
9	0xbf25533c	-0.6458013
10	0x3f1d51c6	0.614529
11	0xbea406ae	-0.32036346
12	0x3f044036	0.5166048
13	0xbe988377	-0.297878
14	0x3ebb47f4	0.36578333
15	0x3e2a5421	0.16633655
16	0x3d758a2c	0.059946224
17	0xbf9d3750	-1.2282505
18	0xbdfd57fe	-0.12370299
19	0x3fc555e2	1.5416834
20	0x3f168532	0.5879699
21	0x3ebdb6f6	0.3705365
22	0xbde466fa	-0.11152454
23	0x3f5f96f4	0.8733971
24	0x3f004e52	0.5011951
25	0x3dbbba11	0.09166349
26	0x3fb379d8	1.4021559
27	0xbf594ff3	-0.8488762
28	0xbf6a610e	-0.91554344
29	0x3f879670	1.0592785
30	0x3f20a169	0.6274629
31	0x3f276326	0.65385664
32	0x3fc06022	1.5029337
33	0xbfa82fc9	-1.3139583
34	0x3d955d80	0.07293224
35	0x3ed5e2a3	0.41774473
36	0xbbdc2010	-0.0067176893
37	0x3e5d12bb	0.21589176
38	0xbe63a361	-0.22230293
39	0xbdbb7883	-0.09153845
40	0x3fc35ea1	1.5263253
41	0xbefd293e	-0.49445528
42	0x3dbe78b6	0.093003675
43	0x3fbd1fc2	1.4775317
44	0x3fe73e7f	1.8065947
45	0xbe855598	-0.26041865
46	0x3d0925ea	0.033483423
47	0xbeceffc3	-0.40429506
48	0x3edc2062	0.42993456
49	0xbec81e66	-0.39085692
50	0xbfe5140b	-1.7896742
51	0x3e0fd266	0.14045104
52	0xbf872fe4	-1.056149
53	0x3f31866f	0.69345754
54	0xbf22ed72	-0.6364356
55	0xbfce5172	-1.6118605
56	0xbfc46fa4	-1.534657
57	0xbf1a7f6d	-0.60350686
58	0x3fa3cb3b	1.2796396
59	0x3f84adf8	1.0365591
60	0x3ef71262	0.48256212
61	0xbede13b4	-0.43374407
62	0x3fad88bf	1.3557357
63	0x3f075e85	0.528786
64	0xbe2112fc	-0.15729898
65	0x3ec2268b	0.3792003
66	0xbe0c8486	-0.13722429
67	0x3e8f957e	0.2804374
68	0x3fac18c1	1.3445054
69	0x3ea4bbc4	0.32174504
70	0xbe14157a	-0.14461318
71	0x3f9abc46	1.2088706
72	0xbef3bb81	-0.47603992
73	0xbed6531e	-0.41860288
74	0x3f3bbcda	0.7333504
75	0x3dd15601	0.10221482
76	0xbfaead4f	-1.364664
77	0xbf3df277	-0.74198097
78	0xbf01cd8c	-0.50704265
79	0xbfb75f22	-1.4325907
80	0xc02c8407	-2.6955583
81	0x3fc54d52	1.5414221
82	0xbec9a274	-0.39381754
83	0x3f2f3902	0.6844636
84	0x3ed729b6	0.4202401
85	0x3fb01940	1.3757706
86	0xbe6fd5a9	-0.23421349
87	0x3f808f8f	1.0043811
88	0xbfa30aa3	-1.2737621
89	0xbdb01a8a	-0.08598812
90	0xbf8b8fcd	-1.090326
91	0xbf923b28	-1.1424303
92	0xbf3f25b5	-0.7466691
93	0xbcd9bb4e	-0.026578572
94	0xbf32e13f	-0.6987495
95	0x3f68dfcd	0.9096649
96	0x3fc8ee61	1.5697747
97	0x3df6b9f2	0.12047185
98	0x3fc4c8e2	1.5373805
99	0x3f270c0b	0.6525275
100	0x3e909e06	0.28245562
101	0x3f1bc68f	0.6084985
102	0x3f88e70d	1.0695511
103	0xbf855ceb	-1.0418981
104	0x3f4bb371	0.7957068
105	0xbfdda117	-1.7314786
106	0xbf1b7f50	-0.6074114
107	0xbfb865f8	-1.4406118
108	0xbf1fee97	-0.62473434
109	0x3dc6ea78	0.0971269
110	0x3f57aa8c	0.8424461
111	0xbeb0a998	-0.3450439
112	0xbd657d40	-0.05602765
113	0x3fd8d4bb	1.693992
114	0xc02eaff3	-2.729489
115	0xbf562228	-0.8364587
116	0xbfa2cb0a	-1.2718213
117	0x3f6c378d	0.92272264
118	0xbc93c114	-0.018036403
119	0x3e875889	0.26434734
120	0xbe469b43	-0.19395165
121	0xbfe75918	-1.8074064
122	0xbfcd6a84	-1.6048131
123	0x3fbdec42	1.4837725
124	0x3f955901	1.1667787
125	0xbd98799e	-0.07445072
126	0x3e464a66	0.19364318
127	0x3f874545	1.0568014
128	0xbe5bf74f	-0.2148106
129	0xbf922657	-1.141795
130	0xbf808bb0	-1.0042629
131	0x3f8f4270	1.119215
132	0xbf0064a6	-0.5015358
133	0xbf40af0c	-0.752671
134	0x3db8e710	0.09028447
135	0x3eda0778	0.42583823
136	0x3fe26948	1.7688379
137	0x40264117	2.5977228
138	0xbe485f2a	-0.19567552
139	0x3d303792	0.043021746
140	0xc02c92cc	-2.6964598
141	0xbf0a7a4f	-0.5409288
142	0xbf97f241	-1.1870805
143	0xbff89e58	-1.9423323
144	0x3c37dd2c	0.011222165
145	0x3f928ec7	1.1449822
146	0xbfe7793c	-1.8083873
147	0x3f984255	1.1895243
148	0x3f818755	1.0119425
149	0x3f57fd47	0.84370846
150	0x3f903bf8	1.1268301
151	0x3fc2abc9	1.5208675
152	0x3f194a33	0.59878844
153	0x3f693079	0.9108959
154	0xbeec81a6	-0.46192664
155	0xbf94c479	-1.1622459
156	0xbf552821	-0.83264357
157	0xbf46d67a	-0.77671015
158	0x3dd2adae	0.10287033
159	0x3c840d23	0.016119545
160	0xbf7dc63a	-0.99130595
161	0xbf3aa978	-0.7291484
162	0x3cf8a27e	0.03035092
163	0x3f78fd8c	0.9726188
164	0xc00215c8	-2.0325794
165	0x3fab2567	1.3370789
166	0x3e9f59cf	0.31123206
167	0x3f854c40	1.0413895
168	0xbe1d5049	-0.15362658
169	0x3eb95f21	0.3620539
170	0xbf03d9c9	-0.5150419
171	0x401ade0a	2.4198022
172	0x3f3d4990	0.7394037
173	0x3f85410b	1.0410475
174	0x3d8112dc	0.06302425
175	0x3f15b58d	0.5848015
176	0x40463565	3.097009
177	0xbfbbf7ce	-1.4684999
178	0xbd549448	-0.051899225
179	0xbc5b5c46	-0.013388699
180	0xbf044f9a	-0.5168396
181	0xbe931c04	-0.28732312
182	0xbe5e13b7	-0.21687208
183	0x3e991a37	0.29902813
184	0x3e898707	0.2686083
185	0xbe38b4fb	-0.18037789
186	0x3f16a4d2	0.58845246
187	0x400b9950	2.1812325
188	0xbf969527	-1.1764268
189	0x3f459b0c	0.7718971
190	0xbf0adf19	-0.5424667
191	0x3eb1627d	0.34645453
192	0xbe005e78	-0.12536037
193	0xbe99c2d9	-0.3003147
194	0xbef41010	-0.47668505
195	0xbfa3a5c1	-1.2784959
196	0x3f38a817	0.72131485
197	0x3f40ac1d	0.75262624
198	0x3f587b30	0.8456297
199	0x3e025199	0.1272644
200	0x3f4c7c2e	0.79876983
201	0xbf88b302	-1.0679629
202	0x3f09cf0f	0.5383157
203	0xbf2f3502	-0.6844026
204	0x3f22f7ac	0.6365917
205	0xbf8cda41	-1.1004106
206	0x3fa8f74c	1.3200469
207	0xbec2fbe4	-0.38082802
208	0x3ffc30d4	1.9702401
209	0xbf626873	-0.88440627
210	0xbdadfc0d	-0.084953405
211	0xbf103f71	-0.56346804
212	0x3e20ee82	0.15715984
213	0xbe561077	-0.20904718
214	0x3f878cc6	1.0589836
215	0x3f8e8afd	1.1136166
216	0xbd9981d6	-0.07495467
217	0xbf4b4ad8	-0.7941108
218	0xbfd66b56	-1.6751506
219	0xbeb1a575	-0.34696546
220	0xbf8d8797	-1.1057004
221	0x4008271f	2.1273878
222	0x3ec7871f	0.38970277
223	0x3f0d2adf	0.5514354
224	0x3fe6306b	1.7983526
225	0xbffbaae1	-1.9661523
226	0x3f36def7	0.7143397
227	0x3ec1133b	0.37709984
228	0x3e9a16d9	0.30095556
229	0xbf0da047	-0.5532269
230	0x3f6d1fd5	0.92626697
231	0x3bbeaeb1	0.0058191647
232	0x3f047860	0.5174618
233	0xbf1a1c10	-0.6019907
234	0x3f888be8	1.0667696
235	0x3f4bfd36	0.79683244
236	0x3f20a797	0.6275572
237	0x3fa93869	1.322034
238	0x3f2fef36	0.6872438
239	0x3fb442f9	1.4082938
240	0x3f39e0df	0.7260875
241	0xbfff0891	-1.9924489
242	0xbce090ea	-0.02741285
243	0x3e1e8b6b	0.15482871
244	0xbf44179c	-0.76598525
245	0x3e85d596	0.26139516
246	0x3e730623	0.2373281
247	0xbfcb5f14	-1.588839
248	0x3e325572	0.17415407
249	0xbfc44fcc	-1.5336852
250	0x3fb60c42	1.4222491
251	0xbf2f5839	-0.6849399
252	0x3fc00cce	1.5003908
253	0x3f1d6587	0.61483043
254	0xbf73a69b	-0.95176095
255	0xbf008f92	-0.5021907

r.1.Y f4 [8, 8]
0	0xbcba9fe5	-0.022781322
1	0xbe38ffc2	-0.18066314
2	0x3ec579c3	0.3856946
3	0xbd809d36	-0.062799856
4	0xbd7dedd0	-0.061994374
5	0xbe836c82	-0.25668722
6	0xbfe04ec9	-1.7524043
7	0xbe13b3f7	-0.1442412
8	0x3e292464	0.16517788
9	0x3e5b2ff4	0.21405011
10	0xbed49042	-0.4151631
11	0xbf457362	-0.77129185
12	0xbfd8679c	-1.6906619
13	0xbfae5bed	-1.3621804
14	0x3e869051	0.2628198
15	0xbe322dd4	-0.17400295
16	0x3f0e132b	0.55498
17	0x3f289442	0.65851223
18	0x3c35fc34	0.011107493
19	0x3fa7fb89	1.3123637
20	0x3fe7b880	1.810318
21	0xbf2bde70	-0.6713629
22	0x3fa0d2dd	1.256435
23	0x3f90d433	1.1314758
24	0xbec69991	-0.38789037
25	0x401be41b	2.4357975
26	0xc00ae441	-2.1701815
27	0x3f0640b7	0.52442497
28	0xbff9492e	-1.9475458
29	0xbfab2512	-1.3370688
30	0xc03fd2b4	-2.9972353
31	0x3d86257f	0.065501206
32	0xbf741506	-0.9534458
33	0xbee8f6d7	-0.45500824
34	0xbfa7c5c4	-1.3107228
35	0xbf925976	-1.1433551
36	0x3d059823	0.032615792
37	0xbe830e41	-0.25596812
38	0x3ec3d66d	0.3824953
39	0x3f8b84d5	1.0899912
40	0xbf0499c8	-0.5179715
41	0x3eca0407	0.39456198
42	0x3e941d82	0.28928763
43	0x3f42ba9c	0.76065993
44	0x3ecc8df5	0.39952055
45	0x3ed931b0	0.4242072
46	0x3f4dfd83	0.80464953
47	0x3e17fff3	0.1484373
48	0xbf7b68f4	-0.9820702
49	0x3ee09a00	0.43867493
50	0xbfa1b9d6	-1.2634838
51	0xbff78731	-1.9338132
52	0xbf3e4144	-0.7431834
53	0xbeccb9d9	-0.3998554
54	0x3f00f019	0.5036636
55	0x3f9036c4	1.1266713
56	0x3f979807	1.184327
57	0x3f54e88f	0.83167356
58	0x3fbebe8b	1.4901899
59	0x3f10dfa8	0.5659127
60	0x3ef195ad	0.47184506
61	0x3f2278de	0.6346568
62	0xbf89d36c	-1.0767646
63	0x3f297c30	0.6620512

r.1.B2 f4 [8, 6]
0	0xc0001ace	-2.001636
1	0xbe11ef04	-0.14251333
2	0x3f3fc6cd	0.7491272
3	0x3f8b581b	1.0886263
4	0x3f5cb77d	0.8621748
5	0xbda4be0a	-0.080440596
6	0xbec4f908	-0.38471246
7	0x3e83b7f9	0.25726297
8	0x3f287300	0.65800476
9	0xbc6e1a48	-0.014532633
10	0xbf612364	-0.87944627
11	0x3ff66501	1.9249574
12	0xbdeb0912	-0.114763394
13	0xbfa75991	-1.3074208
14	0xc000bcce	-2.0115237
15	0x3f308261	0.6894894
16	0x3eca915b	0.39564022
17	0xbfb5de81	-1.4208528
18	0xbfc127e8	-1.5090303
19	0x3e347fe1	0.17626907
20	0xbfd8df49	-1.6943141
21	0xbef68aec	-0.48152864
22	0xbee6aa36	-0.45051736
23	0x3f4dfa52	0.80460083
24	0x3f59e444	0.8511393
25	0x3faa7087	1.3315591
26	0x3cf566d9	0.029956268
27	0x40132c7e	2.2995906
28	0xbf87ed14	-1.0619226
29	0xbf6d3b32	-0.9266845
30	0xbe2da61f	-0.16957901
31	0xbf1c8782	-0.6114427
32	0x3f85b330	1.0445309
33	0x4006f119	2.1084654
34	0x3ec394bb	0.3819941
35	0xbf4991b7	-0.7873797
36	0x3eec2273	0.46120033
37	0xbfd07ae3	-1.6287502
38	0x40281fed	2.6269486
39	0xc011f23f	-2.2804105
40	0xbfa5ae39	-1.2943794
41	0x3e816b2c	0.25277078
42	0xbeef51da	-0.46742135
43	0x3f7c2e81	0.9850846
44	0xbf2a9829	-0.6663843
45	0xbfa62e36	-1.2982852
46	0x3f5a29d8	0.852201
47	0x3e50f87e	0.20407292

r.1.C2 f4 [2, 8]
0	0xbf2bbd37	-0.67085594
1	0x3ea5d6cc	0.3239044
2	0xbf650799	-0.8946472
3	0xbf56aa82	-0.83853924
4	0xbf67ac2e	-0.904971
5	0xbf2ebef4	-0.6826012
6	0x3edea636	0.43486184
7	0xbf20dd43	-0.6283762
8	0x3f499696	0.787454
9	0x3fb42edb	1.4076799
10	0xbe970262	-0.29494005
11	0xbf5838d5	-0.8446172
12	0x3ffe307c	1.9858546
13	0x3e6af99f	0.22946785
14	0xbf923662	-1.1422846
15	0xbf4145e0	-0.75497246

r.1.D21 f4 [2, 8]
0	0xbf597236	-0.849399
1	0xbf5295fb	-0.822601
2	0xbf50c1e6	-0.81545866
3	0xbf537868	-0.826056
4	0xbf6e6636	-0.9312471
5	0xc01b15e4	-2.423211
6	0xbf2ca7b1	-0.67443377
7	0xbf79f7fd	-0.97644025
8	0xbf9e4571	-1.2364942
9	0xbf332084	-0.6997149
10	0xbc984af5	-0.01859043
11	0xbe1a0d19	-0.15044059
12	0x3e75f453	0.24018984
13	0xbf2f22c9	-0.6841245
14	0x3e93bdce	0.28855747
15	0x3d1c0be9	0.038097296

r.1.Z3 f4 [4, 2]
0	0x3ea5d5ff	0.3238983
1	0xbf20600f	-0.62646574
2	0xbe1094b8	-0.14119232
3	0x3ea1f1cd	0.31629792
4	0x3f0ecbfa	0.55779994
5	0x3e172f1e	0.14764068
6	0xbe5442de	-0.20728633
7	0x3f98ea0f	1.1946429

r.1.X3 f4 [2, 2]
0	0x3f950b5c	1.1644092
1	0x3fd6f88c	1.67946
2	0x3f82a299	1.0205871
3	0x3fbe02c6	1.4844596

r.1.Y3 f4 [2, 2]
0	0xbeb1aa9c	-0.34700477
1	0xbe936e19	-0.28794935
2	0xbf51e112	-0.81984055
3	0x3ec25d6a	0.37961894

r.1.D12 f4 [8, 6]
0	0x3f5fb492	0.87384903
1	0xc045def0	-3.091732
2	0x401eab24	2.4791956
3	0x3f0f13d8	0.55889654
4	0xbfb775bb	-1.4332803
5	0xbd304768	-0.04303685
6	0xbf68b565	-0.90901786
7	0xbef01c78	-0.4689672
8	0xbef37291	-0.47548345
9	0xbfc1cb2f	-1.5140132
10	0xbf4aa7a8	-0.79162073
11	0x3fedefea	1.8588841
12	0x3f072401	0.5278931
13	0x3cfab6e9	0.030604796
14	0x3fade48f	1.3585376
15	0xbfce5e6f	-1.6122569
16	0xbfa83fb9	-1.3144447
17	0x3f7ef5fa	0.9959408
18	0x3f424c13	0.7589733
19	0xc03aa690	-2.9164162
20	0x3e2f5ee3	0.1712604
21	0xbea47e3c	-0.3212756
22	0xc04cd076	-3.2002234
23	0xbc70b4ba	-0.014691526
24	0xbe00cff5	-0.1257933
25	0xbe27583f	-0.16342257
26	0xc017ef43	-2.3739784
27	0xc027a68d	-2.6195405
28	0xbee5b038	-0.44861007
29	0xbfbeeab6	-1.4915378
30	0x3f63705b	0.88843316
31	0x3ed4ecce	0.41586918
32	0xbdd10c82	-0.10207464
33	0xbe7b802f	-0.24560617
34	0x3f298cab	0.6623027
35	0x3fb83051	1.4389745
36	0xbf45dfdc	-0.7729471
37	0xbfab313d	-1.3374401
38	0x3ec466e9	0.38359764
39	0xc0204e4e	-2.5047793
40	0xbf828cb8	-1.0199194
41	0xbf1b8ea3	-0.6076452
42	0xc00a29da	-2.1588044
43	0x3f5be55d	0.85896856
44	0xbe959e3f	-0.29222295
45	0x3e519c18	0.20469701
46	0x3f49c7b7	0.78820366
47	0xbfc7976b	-1.5593084

r.1.bxi f4 [8]
0	0x3f193d19	0.5985885
1	0xbe559ea0	-0.20861292
2	0x4019c82c	2.4028425
3	0x3f284c9e	0.6574191
4	0x3f917339	1.1363288
5	0xbeaed9be	-0.341505
6	0xbf2532a8	-0.6453042
7	0xbfb3950c	-1.402986

r.1.bv f4 [8]
0	0xbe443308	-0.19160092
1	0xbeb40a43	-0.3516408
2	0xbf811fb8	-1.0087805
3	0xbf5bfbd8	-0.8593116
4	0xbf911a9f	-1.1336249
5	0xbf99d360	-1.2017632
6	0x3eb927f2	0.36163288
7	0x3db72b2c	0.08943781

r.1.bu f4 [2]
0	0x3fbe0fe7	1.4848603
1	0x3e937466	0.28799742

r.2.X f4 [24, 24]
0	0xbf1be51a	-0.60896456
1	0xbf90ed46	-1.132241
2	0xbef7454f	-0.48295066
3	0x3fb257c9	1.393304
4	0x3fa1e2f5	1.2647387
5	0xbfa67262	-1.3003657
6	0x3d22f6de	0.039786212
7	0x3f50e700	0.8160248
8	0x3f413ead	0.7548626
9	0x3e50bbaa	0.20384088
10	0x3f0ea3c2	0.55718625
11	0xbe1c839c	-0.1528458
12	0x3f006f3b	0.50169724
13	0xbce58269	-0.028016286
14	0x3e817e9c	0.25291908
15	0x3e3c7059	0.18402232
16	0xbff6798f	-1.9255847
17	0x3ef27700	0.47356415
18	0x3f5aff04	0.8554537
19	0x3f0983a9	0.5371652
20	0x3f618419	0.8809219
21	0xbe3d9386	-0.18513307
22	0x3f502500	0.8130646
23	0xbbe3ceb8	-0.006952133
24	0x3e96e62b	0.2947248
25	0x3e9093a6	0.28237647
26	0x3f311555	0.69173175
27	0xbf1075a3	-0.564295
28	0xbe096d53	-0.1342061
29	0xbf112bb4	-0.5670731
30	0xbf92eaa5	-1.1477858
31	0x3e4b9bcb	0.19883649
32	0x3f3bf745	0.7342418
33	0x3edc583d	0.4303607
34	0x400ce649	2.2015555
35	0xbc9a6e13	-0.018851316
36	0x3fd3578d	1.6511093
37	0x3ec9e546	0.39432734
38	0x3efc0c05	0.4922792
39	0x3fc10171	1.5078565
40	0xbec20dc4	-0.37901127
41	0xbf6875ca	-0.9080473
42	0x3f95cb45	1.1702658
43	0x3dc4ec2c	0.09615359
44	0xbe97685c	-0.29571807
45	0xbe6578ca	-0.22409359
46	0x3db121f1	0.08649052
47	0x3e34035e	0.1757941
48	0xbfa3cd4d	-1.2797028
49	0x3f8b9ebd	1.0907818
50	0xbf0528f6	-0.52015626
51	0xbe152700	-0.14565659
52	0xbefaf398	-0.49013972
53	0xbf74b5cf	-0.9558992
54	0x3e1c9b10	0.15293527
55	0xbed05bf8	-0.40695167
56	0xbf91ef14	-1.1401086
57	0x3f888089	1.0664226
58	0x407b4a08	3.9263935
59	0x3f846a25	1.0344893
60	0x3f5b7421	0.85724074
61	0x3e9d9503	0.3077775
62	0xbffdc563	-1.9825863
63	0x3e79f7f3	0.24410991
64	0xbf3aea28	-0.73013544
65	0x3f807402	1.0035403
66	0xc02f3c61	-2.7380602
67	0x3e3eb051	0.18621947
68	0x3da15248	0.07877022
69	0xbdd83d34	-0.105585486
70	0xbf0d235b	-0.55132073
71	0x3dea4a9b	0.11440011
72	0x3f9e8112	1.2383139
73	0x3e010b62	0.12601998
74	0xbef72dc0	-0.48277092
75	0xbdd476f8	-0.10374254
76	0xbf6dbade	-0.9286326
77	0x3efcffdb	0.49413952
78	0xbdae84ba	-0.08521409
79	0x3fca9778	1.5827475
80	0x3fc09b30	1.504736
81	0xc00b8ddf	-2.1805341
82	0x3f6a955c	0.91634154
83	0xbf287534	-0.6580384
84	0x3f4ad42c	0.7923
85	0x3ef19bf5	0.47189298
86	0x3f9e081f	1.2346228
87	0xbfe518e7	-1.7898225
88	0xbf66e079	-0.9018627
89	0x3fb69bae	1.426626
90	0x3fda0950	1.7034092
91	0x3dc785c0	0.09742308
92	0x3e561c4b	0.2090923
93	0x3f1568c4	0.58362985
94	0x3e659224	0.2241903
95	0xbf54cc25	-0.83124
96	0x3fd8d08b	1.6938642
97	0xbf3a58ef	-0.7279195
98	0x3f03bb95	0.514581
99	0xbfa63d9c	-1.2987552
100	0xbf13142b	-0.5745265
101	0xbfa2cd58	-1.2718916
102	0x3f302dfe	0.6882018
103	0x3f16723b	0.5876805
104	0xbe43fc01	-0.191391
105	0x40010fa3	2.0165794
106	0xc0072d81	-2.1121523
107	0xbfbef7af	-1.4919337
108	0xbf60bcb5	-0.87787944
109	0x3e463424	0.19355828
110	0x3f3497e0	0.7054424
111	0xbc3bd796	-0.011464974
112	0x3ea419d7	0.32050964
113	0x3eeda71f	0.46416566
114	0xbf400c63	-0.750189
115	0xbe8b804d	-0.27246323
116	0xbf715a86	-0.9427875
117	0xbf7c629c	-0.98587966
118	0x3f6848af	0.90735906
119	0xc007f30d	-2.1242096
120	0x4017ee1b	2.3739078
121	0x3f62e60a	0.8863226
122	0xbf3967fb	-0.72424287
123	0xbfbd587e	-1.4792631
124	0xbf0b9d56	-0.5453695
125	0x3f0b5937	0.54433006
126	0xbf7d0b47	-0.9884533
127	0x3f77e8ff	0.968399
128	0xbfdc45cc	-1.72088
129	0xbff51bc3	-1.9149097
130	0xbfbe96be	-1.4889753
131	0xbfb51946	-1.4148338
132	0x3e7cbbe8	0.24681056
133	0x3f47c397	0.7803282
134	0x3f9b66aa	1.2140706
135	0x3fc149a5	1.51006
136	0x3f277f89	0.6542898
137	0xbf8a57ab	-1.0808004
138	0x3f46a820	0.7760029
139	0xbfff3d4f	-1.9940585
140	0xbf33490d	-0.7003334
141	0x3eac76d3	0.33684406
142	0xbecf718a	-0.4051631
143	0x3e1a9687	0.15096484
144	0xbe215dad	-0.1575839
145	0xbfb85d33	-1.4403442
146	0x3ffb3509	1.962556
147	0xbdea29fb	-0.114337884
148	0x3f228e80	0.6349869
149	0x3ed457f6	0.4147336
150	0xbe03a4f1	-0.12855889
151	0x3f3e2651	0.74277216
152	0xbf0d35c6	-0.55160177
153	0xbf62b1ee	-0.8855275
154	0x3f79db85	0.97600585
155	0xbf691d31	-0.9106017
156	0xbf078606	-0.5293888
157	0xbde3d5a1	-0.11124731
158	0xbf959167	-1.1684998
159	0x400eb0c4	2.229539
160	0xbf15614e	-0.583516
161	0x4005a919	2.088446
162	0xbd5f188e	-0.054466777
163	0x3f5253d4	0.8215916
164	0xbf87e81d	-1.061771
165	0x3fd79e7b	1.6845239
166	0x3f9a2f1e	1.2045629
167	0xbeee799a	-0.4657715
168	0xbf1ac7ee	-0.6046132
169	0x3fa1eeda	1.2651017
170	0xbe0d23de	-0.13783213
171	0x3f97ee40	1.1869583
172	0x3f12f885	0.5741046
173	0xbf9b28e8	-1.2121859
174	0xbea033c2	-0.31289488
175	0x3fb53e48	1.4159632
176	0xbd8e76f8	-0.06956285
177	0xc031e64b	-2.779681
178	0x3fed3613	1.8532127
179	0xbee8fafd	-0.4550399
180	0xbfdf08bc	-1.742454
181	0x3f244391	0.641656
182	0xbec444bf	-0.383337
183	0x3f74f4c2	0.9568597
184	0xbf92ad95	-1.1459223
185	0x3f5833c5	0.84453994
186	0xc00924e4	-2.1428766
187	0x3c92b4f1	0.017908545
188	0x3f6d1333	0.9260742
189	0xbfbc23b1	-1.4698392
190	0xbdf3a921	-0.11897493
191	0x3e5967f9	0.21231069
192	0x3ffa1935	1.9538943
193	0xbf8dbd06	-1.107331
194	0x3e941f27	0.28930017
195	0x3f081e03	0.53170794
196	0x3fec7631	1.8473569
197	0xbe8af779	-0.27141932
198	0x3f822afd	1.0169369
199	0xbe985d75	-0.29758802
200	0x3f144063	0.57910746
201	0xbf0485ca	-0.51766646
202	0x3e94ca84	0.29060757
203	0xbf980d35	-1.187903
204	0xbdbf802b	-0.09350618
205	0xbf1fb356	-0.6238302
206	0xbe044b4e	-0.12919351
207	0x3f7f57c3	0.9974329
208	0x3fe4a1ee	1.7861917
209	0xbfcd3e94	-1.6034722
210	0xbf633f13	-0.8876812
211	0x3ed5af78	0.41735435
212	0x3d02dbf8	0.03194806
213	0x3f2410b2	0.64087975
214	0xbe1f50c8	-0.1555816
215	0xbef5c01d	-0.47998133
216	0x3fca700b	1.5815443
217	0x3f10acc9	0.5651365
218	0xbd7e4949	-0.06208161
219	0x3e9ddbc4	0.3083173
220	0x3f4f5c50	0.8100023
221	0xbf264be4	-0.6495955
222	0x3f482fe5	0.7819808
223	0x3e49164e	0.19637415
224	0x3f3e9d2e	0.7445859
225	0xbf431bee	-0.7621449
226	0x3dfdd626	0.12394361
227	0xbfa3809f	-1.2773627
228	0x3eaf1ede	0.34203237
229	0xbd9aca63	-0.075581335
230	0x3f5bec0d	0.8590706
231	0x3f49f936	0.7889589
232	0xbe313561	-0.17305519
233	0xbe83068e	-0.25590938
234	0x3d994422	0.074836984
235	0xc0134c3b	-2.3015277
236	0x3fa3b0d0	1.2788334
237	0xbfc92f5e	-1.571758
238	0x3f4cccfd	0.8000029
239	0xbfddaa04	-1.731751
240	0xbfa85540	-1.3151016
241	0x3f68179d	0.9066103
242	0x3d903565	0.07041434
243	0x3e75816f	0.23975156
244	0xbe213f41	-0.15746786
245	0xbf126e22	-0.571993
246	0x3f8c6201	1.0967408
247	0xbf8acf8b	-1.0844587
248	0x3fc9d4b1	1.5768033
249	0x3fdb6f06	1.7143257
250	0x3f6f2bbe	0.9342612
251	0x3fa3fdea	1.2811863
252	0xbe6a0755	-0.2285436
253	0xbf040155	-0.5156453
254	0x3f7c43df	0.98541063
255	0xbfee701e	-1.8627965

r.2.Y f4 [8, 8]
0	0xbef03b63	-0.46920308
1	0xbeadab0f	-0.3391957
2	0xbf932466	-1.1495483
3	0x3ea8d375	0.3297383
4	0x3f8dba90	1.1072559
5	0xbf613a5e	-0.87979686
6	0x3f66db3c	0.90178275
7	0xbfe1e943	-1.7649311
8	0x3d2bd5ff	0.04195213
9	0x3efede4a	0.49778968
10	0xbf89d4d8	-1.076808
11	0x3fc2620a	1.5186169
12	0x3fd74143	1.6816791
13	0x3f44c92e	0.76869476
14	0x3fbbef63	1.468243
15	0x3e5e7ecb	0.21728055
16	0xbfa1c1f8	-1.263732
17	0x3fe0efc8	1.7573175
18	0x3ea57380	0.32314682
19	0xbe980355	-0.29690042
20	0xbf8e3ff0	-1.1113262
21	0x3f95f4c5	1.1715323
22	0xbf909d4f	-1.1298007
23	0x3daf5ffb	0.08563229
24	0xbf39dea3	-0.7260534
25	0xc00f7eff	-2.2421262
26	0xbfb50051	-1.4140722
27	0x3f90b85f	1.1306266
28	0xbef6c2bf	-0.48195454
29	0x3e56788e	0.20944425
30	0x3efd23ce	0.4944138
31	0x3e838315	0.25685945
32	0x3f492c98	0.7858367
33	0x3ec68019	0.38769606
34	0x3edcc256	0.43117017
35	0xbe36f379	-0.17866315
36	0xbee14aac	-0.44002283
37	0x3d0a9e53	0.033842396
38	0xbeeaad29	-0.45835236
39	0xbfddf4c7	-1.7340325
40	0xbf467198	-0.7751708
41	0x3f830603	1.023621
42	0x3efae7a7	0.49004862
43	0xbf0a767e	-0.54087055
44	0x3eb4c42d	0.3530592
45	0xbfb3aa5b	-1.4036363
46	0x3eeb0464	0.45901787
47	0xbf54ce83	-0.8312761
48	0xbf9683ec	-1.1759009
49	0xbf657d0d	-0.8964394
50	0x3f840976	1.0315387
51	0xbee3c272	-0.44484288
52	0x3ddce57e	0.1078596
53	0x3ed20cb5	0.4102532
54	0x3fe0d937	1.7566289
55	0xbf703896	-0.93836343
56	0x3f1577ea	0.583861
57	0xbfe5fdcf	-1.7968081
58	0xbf44012f	-0.76564306
59	0xbdd20604	-0.10255054
60	0x40079468	2.118433
61	0x3f437dc5	0.76363784
62	0x402c0cf2	2.68829
63	0xbd4dc2db	-0.050234657

r.2.B2 f4 [8, 6]
0	0xbe38b22f	-0.18036722
1	0x3e21bc4e	0.15794489
2	0xbffc8df7	-1.9730824
3	0x3f42cbee	0.7609242
4	0xbd769993	-0.060205054
5	0x3f8e75cb	1.1129698
6	0xbf553188	-0.83278704
7	0xbe101cd8	-0.14073503
8	0xbe53804a	-0.20654407
9	0xbf480d86	-0.78145635
10	0x3f26f56e	0.65218246
11	0xbee7c726	-0.45269126
12	0xbecc4e98	-0.39903712
13	0x3fa44cc4	1.2835927
14	0xbf1a26ea	-0.6021563
15	0x401eac7d	2.4792778
16	0x3d4ecd0b	0.050488513
17	0xbf7f130a	-0.99638426
18	0xbfa604d7	-1.2970227
19	0xbf55f83f	-0.8358192
20	0x3e0a032d	0.13477774
21	0x3e47008c	0.19433802
22	0x3e3051ac	0.17218655
23	0xc00cce07	-2.200075
24	0xbf2c3cd4	-0.67280316
25	0x4007caf4	2.1217623
26	0xbe311510	-0.17293191
27	0xbd6f0f60	-0.058364272
28	0x3fceeb4c	1.6165557
29	0xbf5b36ec	-0.8563068
30	0x3fe89128	1.8169298
31	0xbeea0306	-0.45705432
32	0xbf8ffb1e	-1.124851
33	0x3d0ab4d8	0.033863872
34	0x3f965531	1.1744748
35	0xc045dc8a	-3.0915856
36	0x3e4904b5	0.19630702
37	0xbdabc1aa	-0.08386548
38	0xbf9f834e	-1.2461946
39	0xbf89bbcf	-1.076044
40	0xbd9e9b9e	-0.077445254
41	0x3f3b2a3a	0.7311131
42	0xbf321ec1	-0.69578177
43	0xbe611f85	-0.2198468
44	0xbfb24558	-1.3927412
45	0x3f10e0b3	0.56592864
46	0x40194b4d	2.395221
47	0x3e8435ee	0.25822395

r.2.C2 f4 [2, 8]
0	0x3e7c3df0	0.24633002
1	0x401abc58	2.4177456
2	0x3f2e9a05	0.68203765
3	0xbfd78785	-1.6838232
4	0x3fb06fdd	1.3784138
5	0xbefc68dd	-0.49298754
6	0xbf500d2c	-0.812701
7	0xbc1d67d2	-0.009607272
8	0x3f0bc01b	0.54590005
9	0xbde79545	-0.11307768
10	0x3fd890f0	1.6919231
11	0x3f1717dc	0.5902078
12	0xbf90e192	-1.1318839
13	0xbf14288b	-0.57874364
14	0xbf722f7d	-0.9460371
15	0xbfb7a2ad	-1.434652

r.2.D21 f4 [2, 8]
0	0x3ed6a5c3	0.4192334
1	0x3d2afc61	0.041744594
2	0x3fa556c3	1.2917103
3	0xbf2474ff	-0.6424102
4	0xbfc1cb5a	-1.5140183
5	0xbf73431b	-0.9502427
6	0x3f8b139e	1.0865362
7	0x3f09322e	0.53592193
8	0xbf1d5559	-0.61458355
9	0x3f84e5f3	1.0382675
10	0xbf9a2ed7	-1.2045544
11	0x3eae9ca6	0.34103888
12	0x3f44a0bc	0.7680776
13	0x3e886eb9	0.26646975
14	0x3ae0971a	0.0017134876
15	0x3fca7146	1.5815818

r.2.Z3 f4 [4, 2]
0	0x3e593f00	0.21215439
1	0x3e085f07	0.133175
2	0x3f0664e8	0.5249772
3	0x3f0c506a	0.548102
4	0x3ec23d30	0.37937307
5	0x3ffca2fc	1.9737239
6	0xbe990708	-0.29888177
7	0xbdc405c9	-0.09571416

r.2.X3 f4 [2, 2]
0	0x3e8dfd1f	0.2773218
1	0x3f940591	1.1564199
2	0xbe7a1369	-0.24421467
3	0xbfc8431e	-1.5645483

r.2.Y3 f4 [2, 2]
0	0xbd5582ca	-0.052126683
1	0xbf3fcfde	-0.74926555
2	0xbfb90c70	-1.4456921
3	0xbe060465	-0.13087614

r.2.D12 f4 [8, 6]
0	0x3f07990a	0.52967894
1	0xbeabc405	-0.3354799
2	0xbf5d397c	-0.8641584
3	0xbebdd4b7	-0.3707635
4	0x3fd5a56b	1.6691107
5	0xc0170840	-2.3598785
6	0xbf715a61	-0.9427853
7	0xbe7b2c44	-0.24528605
8	0xbe265168	-0.16241992
9	0x3e970bbd	0.29501143
10	0xc019cdf5	-2.4031956
11	0x3f87c587	1.0607156
12	0x3f54dac8	0.83146334
13	0xbfaff0ec	-1.3745399
14	0xbe8786ec	-0.26470125
15	0x3ef44b07	0.4771349
16	0xbdd173c7	-0.10227161
17	0x3f84e4f4	1.0382371
18	0xbf4b047a	-0.79303706
19	0xbc01cb29	-0.007921972
20	0x3fb984ee	1.4493692
21	0xbf504ff2	-0.81371987
22	0x3fa1c1d6	1.2637279
23	0x3d84f9b6	0.06492941
24	0x3ef96f9f	0.48717973
25	0x3fd90feb	1.6957983
26	0xbf9c59d0	-1.2214909
27	0x3ee9aa7b	0.4563788
28	0x3ef9e587	0.48807928
29	0xbf9e586b	-1.2370733
30	0x4006f4a7	2.1086824
31	0x3ede2e81	0.43394855
32	0x3f262f76	0.6491617
33	0xbfc42abb	-1.532554
34	0xbf92d7a0	-1.1472054
35	0xbf0b0221	-0.54300123
36	0xbea83e97	-0.32860252
37	0xbf942111	-1.1572591
38	0x3e031233	0.12799911
39	0x3f24cbf0	0.64373684
40	0xbfcd9937	-1.6062382
41	0x3f35ae29	0.7096887
42	0x3e37167e	0.17879674
43	0x3e6c60a0	0.23083735
44	0x3db8102c	0.089874595
45	0xbe9ff9e0	-0.31245327
46	0xbedc6d78	-0.43052268
47	0x3de37b95	0.11107556

r.2.bxi f4 [8]
0	0xbfcfb4c6	-1.6227043
1	0xbf5e4808	-0.8682866
2	0xbf2b1b87	-0.6683888
3	0x3f8d646b	1.104627
4	0x3fa3d6e9	1.279996
5	0x3f9a32dd	1.2046772
6	0xbf800f4f	-1.0004672
7	0xbf8cada9	-1.0990497

r.2.bv f4 [8]
0	0x3f093334	0.53593755
1	0x3ec04a48	0.37556672
2	0xc0185631	-2.3802607
3	0xbfa5a0d1	-1.2939702
4	0xbf80a909	-1.0051585
5	0x3e9e7963	0.30951986
6	0xbfed0837	-1.8518132
7	0x3f4c9146	0.7990917

r.2.bu f4 [2]
0	0xbf7c04d6	-0.9844488
1	0xbeb1af8e	-0.3470425

r.3.X f4 [24, 24]
0	0xbe893be4	-0.26803505
1	0x3dba7a78	0.0910539
2	0x3e02ded2	0.12780312
3	0xbf3f14ab	-0.7464091
4	0x3f8e8a87	1.1136025
5	0xc0013560	-2.0188828
6	0xbd679c2b	-0.056545418
7	0xbf4780a9	-0.77930695
8	0x3f0563b6	0.5210527
9	0x3e8738bd	0.26410475
10	0xbf0d901c	-0.5529802
11	0x3d119331	0.035540763
12	0x3d03eb65	0.03220691
13	0x3e633def	0.22191595
14	0x3f0166fc	0.50547767
15	0xbf3d43a4	-0.73931336
16	0xbe950110	-0.29102373
17	0xbf017122	-0.5056325
18	0x3e29b7e3	0.16574053
19	0x3f513a89	0.8172994
20	0xbfcb01db	-1.5859941
21	0xbda945c2	-0.08265258
22	0xbf5360f0	-0.8256979
23	0x3f8ce77e	1.1008146
24	0x3e4bb736	0.19894108
25	0x3eafae6a	0.34312755
26	0x3f310c47	0.6915936
27	0x3ca7e00a	0.020492572
28	0x3ec5be11	0.38621572
29	0x3f99e2f9	1.2022392
30	0x3fb01649	1.3756801
31	0x3f802a30	1.0012875
32	0xbf22457f	-0.6338729
33	0xbe1e2a49	-0.15445818
34	0x3f3a9058	0.728765
35	0xbd84aa6a	-0.064778164
36	0xbea3f1bc	-0.32020366
37	0xbe839069	-0.25696114
38	0xbed2b84b	-0.4115623
39	0x3ee51b40	0.44747353
40	0xbf89d307	-1.0767525
41	0x3e649865	0.22323759
42	0xbffc2e45	-1.970162
43	0x3fa58427	1.2930955
44	0x3fb49b4e	1.4109895
45	0xbea65638	-0.32487655
46	0x3ec8a43b	0.39187798
47	0xbfa82b21	-1.3138162
48	0x3f3bc505	0.733475
49	0x3fe7329a	1.8062317
50	0x3ef49e89	0.47777203
51	0x3fdd59ca	1.7293026
52	0xc003cfed	-2.0595658
53	0xbcf55002	-0.029945377
54	0xbdad3c63	-0.084587835
55	0x3f0056c5	0.501324
56	0x3ecdb6ef	0.4017863
57	0xbf852f02	-1.0404971
58	0x3f010346	0.5039562
59	0x3eb2b0ab	0.34900412
60	0x3f20cb82	0.6281053
61	0xbf1186f4	-0.5684655
62	0xbda94875	-0.08265773
63	0xbf3c0e4f	-0.73459333
64	0xbf91b9cd	-1.1384827
65	0xbf680735	-0.90636
66	0x3e6f64cc	0.23378295
67	0x3e4c834d	0.19971962
68	0x40052c63	2.0808342
69	0x403613cc	2.8449583
70	0x3e87f26f	0.2655215
71	0xbfa0ce0e	-1.2562883
72	0xbf8c0b7b	-1.0941004
73	0xc0031f55	-2.0487874
74	0x3e337390	0.17524552
75	0x3eb1552d	0.34635296
76	0xbc07361b	-0.008252646
77	0x3fb04273	1.3770279
78	0x3ec2e84b	0.3806785
79	0x3f735d55	0.9506429
80	0xbe5f0365	-0.21778639
81	0x3e46b592	0.19405201
82	0x3e487eb0	0.19579577
83	0xbdf1ff55	-0.11816279
84	0xbe126141	-0.14294912
85	0x3eb1c686	0.34721774
86	0xbe5a633b	-0.21326916
87	0x3f4a98c3	0.79139346
88	0xbcd9b40e	-0.026575115
89	0xbcb6a7f7	-0.022296889
90	0xbf334973	-0.7003395
91	0xbe9d7e4a	-0.30760413
92	0xbe1b0626	-0.15139064
93	0x3f5f088f	0.87122434
94	0x3f5d9003	0.8654787
95	0xbf9012b3	-1.1255707
96	0xbf0ab0f8	-0.5417628
97	0x3f37f8fe	0.71864307
98	0xbe33e374	-0.17567235
99	0xbfa7b0d8	-1.3100843
100	0x3f19f407	0.6013798
101	0x3f1c7908	0.6112218
102	0xbf328b1b	-0.6974351
103	0xc048f4ab	-3.1399333
104	0x3e2766ed	0.16347857
105	0xbeb5829d	-0.35451213
106	0xbefb7a0b	-0.4911655
107	0xbc389b04	-0.011267427
108	0xbc470cbe	-0.012149034
109	0xbd22aa80	-0.039713383
110	0x3efdab1a	0.49544603
111	0x3dc5e13c	0.09662101
112	0xbdd39ee3	-0.103330396
113	0xbe26ef04	-0.16302115
114	0x3fe954f7	1.8229054
115	0xbe738595	-0.23781426
116	0xbfd131a5	-1.6343275
117	0xbfb41c0c	-1.4071059
118	0xbfde7f61	-1.7382623
119	0x3fe8d47b	1.8189844
120	0xbedc609b	-0.43042454
121	0x3e127027	0.14300595
122	0x3e7503c9	0.23927225
123	0xbef83c2a	-0.48483402
124	0x3ef67f05	0.48143783
125	0xbfc65aaa	-1.5496418
126	0x401377bd	2.3041832
127	0x3fa5da10	1.2957172
128	0x3de9b687	0.114117675
129	0x3f0574e7	0.52131504
130	0x3f5dc0c2	0.8662225
131	0x3ce5408b	0.027984878
132	0xbd9bf21f	-0.0761454
133	0xbde75e59	-0.11297292
134	0xbe38e00a	-0.18054214
135	0xbe2267bd	-0.15859886
136	0xbf0b5c90	-0.54438114
137	0x3ee1958f	0.44059417
138	0xbf6be7ee	-0.9215077
139	0xbea1300b	-0.31481966
140	0x3f0ad9f3	0.54238814
141	0xbea78a39	-0.32722643
142	0x3f938d3e	1.1527479
143	0xbfaa42a6	-1.330159
144	0x3fb13c7b	1.3846582
145	0xbe0b3e93	-0.13598089
146	0xbcc5db70	-0.024152488
147	0x3f672181	0.902855
148	0xbf42a732	-0.7603637
149	0xbe540008	-0.20703137
150	0xbff93fc4	-1.9472585
151	0x3f86c1e8	1.0527925
152	0xbddbd8e5	-0.10734729
153	0xbed5ef8b	-0.4178432
154	0xbf499ad6	-0.78751886
155	0xbd2f09fc	-0.04273413
156	0x3d42c888	0.047554523
157	0x3e04568d	0.12923642
158	0x3e3ecb8b	0.18632333
159	0xbeb0a8cf	-0.3450379
160	0x3f9bfaa3	1.2185863
161	0x3f1c0aa6	0.6095375
162	0xbcc2d689	-0.023783939
163	0xbd34aa02	-0.044107445
164	0x3ed2ed18	0.41196513
165	0xbea6f9f3	-0.3261257
166	0x3f1a5044	0.60278726
167	0x3f449a58	0.7679801
168	0x3e7cec08	0.24699414
169	0x3f15751b	0.58381814
170	0x3fc06b78	1.5032797
171	0xc01ccbe0	-2.4499435
172	0xbf44b38e	-0.7683648
173	0xbf0b33b7	-0.54375786
174	0xbf39f096	-0.7263273
175	0x3ec4b635	0.38420263
176	0xbd4d1121	-0.050065164
177	0x3e8d24ea	0.27567226
178	0xbeb2d37f	-0.34926984
179	0x3ca75078	0.020424113
180	0xbeba65d6	-0.3640582
181	0x3e02c2e9	0.12769665
182	0x3ef54b96	0.4790923
183	0xbe2324dd	-0.15932031
184	0xbf557e56	-0.833959
185	0xbf15e8fc	-0.5855863
186	0xbf8f032f	-1.1172847
187	0x3ed09989	0.40742138
188	0xbf61ebc5	-0.8825038
189	0xbf6b2884	-0.91858697
190	0x3ec30837	0.38092205
191	0xbe155ad9	-0.14585437
192	0x3f195983	0.5990221
193	0xbfb4d7ce	-1.4128358
194	0xbe2095f6	-0.15682206
195	0xbf699175	-0.91237575
196	0xbfcbc013	-1.5917991
197	0x4017cab1	2.3717463
198	0xbfc8231a	-1.5635712
199	0x3fb08e20	1.3793373
200	0xbe4f8b4c	-0.20267981
201	0x3d4506ff	0.048102375
202	0xbe3dbd6b	-0.18529288
203	0xbeaec091	-0.34131292
204	0xbedb59fc	-0.4284209
205	0x3f33d0e4	0.70240617
206	0xbea24c73	-0.3169895
207	0x3f7dac84	0.9909136
208	0x3f958e1d	1.1683995
209	0xbf9762bd	-1.1827008
210	0xbf684c77	-0.90741676
211	0xbf53143e	-0.8245276
212	0x3f13bd95	0.57711154
213	0x3e31da0b	0.17368333
214	0x3fcc1377	1.594344
215	0xbe79cf60	-0.24395514
216	0x3df836a2	0.121197954
217	0x3e1b3a40	0.1515894
218	0x3e9e77de	0.30950826
219	0xbe17d075	-0.14825614
220	0xbfa67691	-1.3004934
221	0x3fefd083	1.8735508
222	0xbfa7c657	-1.3107404
223	0xbf973f70	-1.1816235
224	0xbd595ebe	-0.05306887
225	0xbe1c3424	-0.15254265
226	0xbe8c77e9	-0.27435234
227	0x3e2a8611	0.16652705
228	0x3e65d2f1	0.22443749
229	0x3b28c52f	0.0025752296
230	0x3dce7028	0.10079986
231	0x3e971e0e	0.29515117
232	0xbf910f1b	-1.1332735
233	0xc028574e	-2.6303287
234	0x3f67ca34	0.9054291
235	0x3dc2c777	0.09510701
236	0x3e8e4b31	0.27791741
237	0x40180f66	2.3759398
238	0xbdd5029c	-0.10400888
239	0x3ea90e26	0.33018607
240	0xbf091fe7	-0.53564304
241	0xc01b8181	-2.4297793
242	0xbdfdebb2	-0.12398471
243	0x3f5ed06a	0.87036765
244	0x3ff2533d	1.8931652
245	0x3fe73910	1.8064289
246	0xbf9b07ab	-1.2111715
247	0xbe114502	-0.1418648
248	0xbed95d72	-0.42454106
249	0x3e20a9b0	0.1568973
250	0xbf2523c7	-0.64507717
251	0xbe79bbc9	-0.2438804
252	0xbec0ee3c	-0.37681758
253	0x3e8c5e52	0.2741571
254	0x3d1b7f2a	0.03796307
255	0xbf15db6e	-0.5853795

r.3.Y f4 [8, 8]
0	0xbea03707	-0.31291983
1	0xbf799a66	-0.9750122
2	0xbecbd67b	-0.39812073
3	0xbf61feaa	-0.8827921
4	0x401f85a8	2.4925327
5	0x3f5db664	0.8660643
6	0x4005c2d9	2.0900176
7	0xbe54933d	-0.20759292
8	0x40299948	2.6499805
9	0xbee87262	-0.45399767
10	0x3de430c4	0.11142114
11	0xbea57b26	-0.32320517
12	0xbee3a3a5	-0.44460788
13	0xbfb94e02	-1.4476931
14	0xbec034ac	-0.37540185
15	0xc02d0e6f	-2.704006
16	0xbf106d61	-0.564169
17	0xbfc281c6	-1.5195854
18	0x3ec2f459	0.38077047
19	0xbfda4894	-1.7053399
20	0x3ed58e90	0.4171033
21	0x3f0d534a	0.55205214
22	0xbf5e46d7	-0.86826843
23	0xbf491299	-0.78544
24	0xbfcd9312	-1.6060507
25	0xbf5f8138	-0.8730655
26	0x3f5bff9d	0.8593691
27	0x3f9c1a43	1.2195514
28	0xbf029396	-0.5100645
29	0xbf1f6711	-0.6226664
30	0x3ee8653a	0.4538973
31	0x3f10babc	0.56534934
32	0xbfd2ef57	-1.6479291
33	0x3f60bb67	0.87785953
34	0x3f646a37	0.8922457
35	0x3dde8b79	0.10866446
36	0x3ec51cf2	0.38498646
37	0x3ee40957	0.44538376
38	0xbf62baba	-0.8856617
39	0x3f431e9a	0.7621857
40	0xbe3a5fa7	-0.18200551
41	0x3fd53ecb	1.6659788
42	0x3ef64c17	0.48104927
43	0x3cfef208	0.031121269
44	0x3f9763d8	1.1827345
45	0xbf354bd3	-0.70818824
46	0xbd035974	-0.03206773
47	0x3fb09326	1.3794906
48	0xc00b58c6	-2.1772933
49	0xbf9308f3	-1.1487106
50	0xbfe9fb68	-1.8279848
51	0xc0090b0e	-2.1412997
52	0xbe1a8b00	-0.15092087
53	0xbf50085e	-0.8126277
54	0xbfe44ede	-1.7836568
55	0x3f9960ee	1.1982706
56	0x3f285501	0.65754706
57	0x402d2667	2.705469
58	0xc0097e10	-2.1483192
59	0xbf87fc9d	-1.0623966
60	0x3f2d2369	0.67632157
61	0xbe903a32	-0.281694
62	0xbedcd886	-0.43133944
63	0x3f12af3c	0.57298636

r.3.B2 f4 [8, 6]
0	0xbf02f452	-0.51154053
1	0x3f105339	0.5637699
2	0xc039e9ca	-2.9048944
3	0x3fb278be	1.3943098
4	0x3f636fb6	0.8884233
5	0xbeadc288	-0.33937478
6	0x3f4946c8	0.7862363
7	0xbf4c9b30	-0.799243
8	0xbee3ec1c	-0.44516075
9	0xbfd38cb3	-1.6527313
10	0xc00998db	-2.1499546
11	0x3ec44461	0.3833342
12	0xbeb0a431	-0.34500268
13	0x402fefba	2.7490067
14	0xbe41dedf	-0.18932675
15	0xc04a889f	-3.1645887
16	0x3e0407df	0.12893628
17	0x3fa9ebee	1.3275125
18	0x403087da	2.7582917
19	0x3f427265	0.759558
20	0xbf2a5ebf	-0.6655082
21	0x3fe45d57	1.7840985
22	0x3fcb805f	1.5898551
23	0x3faa6780	1.3312836
24	0xbe6ac82c	-0.22927922
25	0xbf962e49	-1.1732875
26	0x4000da76	2.0133338
27	0xbf4f7140	-0.8103218
28	0x3fdd92d4	1.7310433
29	0x3ef252dc	0.47328842
30	0x3dc82b5e	0.09773897
31	0xbe1b807f	-0.15185736
32	0xbf538e55	-0.82639056
33	0xbf29890d	-0.6622475
34	0xbf03f452	-0.5154468
35	0xbe75673a	-0.23965159
36	0x40177e93	2.3671005
37	0x3f13e0cc	0.5776489
38	0xbed585ed	-0.4170374
39	0x3fd64371	1.6739331
40	0xbf1caa7a	-0.61197627
41	0xbf73df73	-0.9526283
42	0x3f422a99	0.7584625
43	0xbfa2481f	-1.267826
44	0xbf3069ee	-0.68911636
45	0xbed191c0	-0.4093151
46	0x3f179f86	0.5922779
47	0xbfea8a36	-1.8323429

r.3.C2 f4 [2, 8]
0	0x3e8ef5d9	0.27921942
1	0xbfa77cdd	-1.308498
2	0x3fef7cdb	1.8709978
3	0x3f8318a9	1.0241901
4	0xbe8f3c72	-0.27975804
5	0x3f872d17	1.0560635
6	0xbf0b8ed6	-0.54514825
7	0xbc3d7833	-0.011564302
8	0x3f4ee532	0.80818474
9	0xbe5e5333	-0.21711425
10	0xbf655684	-0.8958514
11	0xbf192d4f	-0.5983476
12	0xbe58e66c	-0.21181649
13	0xbec07ae0	-0.37593746
14	0x3f11344e	0.56720436
15	0xbe46c7b0	-0.19412112

r.3.D21 f4 [2, 8]
0	0xbe118525	-0.14210947
1	0x3f4b0134	0.7929871
2	0x3f9e8451	1.238413
3	0xbed62b6c	-0.41830003
4	0xbf3ef5a9	-0.745936
5	0x3f408b58	0.7521262
6	0xbf5a135b	-0.85185784
7	0x3d4eccf6	0.050488435
8	0x400bc2f8	2.183775
9	0x3f04083d	0.5157507
10	0xbe48cf19	-0.19610251
11	0x3fd30631	1.6486264
12	0x3fed0bd6	1.8519237
13	0x3f37baec	0.71769595
14	0x3f743153	0.9538776
15	0x3f9b4f6a	1.213361

r.3.Z3 f4 [4, 2]
0	0x3f9f3273	1.2437271
1	0x3f74e66e	0.9566411
2	0xbf409fa7	-0.7524361
3	0x3e31eebb	0.17376225
4	0x3f63459b	0.88778085
5	0xbf46910f	-0.7756509
6	0x3e694e3e	0.22783753
7	0xbfa2d53d	-1.2721325

r.3.X3 f4 [2, 2]
0	0x3f83d6e6	1.0299957
1	0xbf03f131	-0.51539904
2	0xbfb7d46f	-1.4361705
3	0xbba787ca	-0.005112623

r.3.Y3 f4 [2, 2]
0	0xbf0368cf	-0.513318
1	0x3e35eb16	0.1776546
2	0x3eebcbf4	0.4605404
3	0xbe754895	-0.23953469

r.3.D12 f4 [8, 6]
0	0xbf91d627	-1.1393479
1	0x3f794113	0.9736492
2	0x3f4241bc	0.7588155
3	0x3f2b90ec	0.6701801
4	0xbf92a54d	-1.1456696
5	0xbeca467a	-0.39506894
6	0x3e89ea27	0.26936457
7	0x40035373	2.0519683
8	0x3d9a6ff2	0.07540883
9	0x3f046cac	0.5172832
10	0x3fa60abb	1.2972025
11	0x3f40c25b	0.7529656
12	0x3fc5fd95	1.5468012
13	0x3eb27c0c	0.34860265
14	0xbe8cc26d	-0.27492085
15	0xbd7d00f8	-0.061768502
16	0x3f4df4d4	0.80451703
17	0x3e8b6f29	0.27233246
18	0xbfa752a2	-1.3072093
19	0xbf05dd41	-0.5229073
20	0x3f48222a	0.7817713
21	0x3f794727	0.97374195
22	0xbf271eda	-0.6528145
23	0xc0090c5a	-2.1413789
24	0xbfdf87e5	-1.7463347
25	0x3ea1fa33	0.316362
26	0x3eb930e4	0.36170113
27	0x3fe0e519	1.7569915
28	0xbf528bbc	-0.8224447
29	0xbfd2e959	-1.6477462
30	0x3cb438de	0.021999773
31	0xbf8b2b20	-1.0872536
32	0x40032e8d	2.0497162
33	0xbf361bbc	-0.7113607
34	0xbf1a52f8	-0.6028285
35	0xbdefd10e	-0.11709796
36	0xbfdee1c0	-1.7412643
37	0x3fb92e0d	1.4467179
38	0xbebd9996	-0.3703124
39	0x3ec78eea	0.38976222
40	0x3f085f9e	0.532709
41	0xbd42630d	-0.047457743
42	0x3fc604df	1.5470237
43	0x3f550a2b	0.8321864
44	0xbe0ad849	-0.13559069
45	0xbeff4e07	-0.49864218
46	0x3fa384f5	1.277495
47	0x3f5d36a6	0.8641151

r.3.bxi f4 [8]
0	0xbe4847e2	-0.19558671
1	0xbf62a1c1	-0.88528067
2	0x3e90f0b6	0.28308648
3	0x3e903e43	0.28172502
4	0x3f900b70	1.125349
5	0xbf694eb0	-0.9113569
6	0xbd282c80	-0.041058064
7	0x3ef5998f	0.47968718

r.3.bv f4 [8]
0	0x3e6373d8	0.2221216
1	0xbf4c8b9e	-0.7990054
2	0x3dc80877	0.097672395
3	0x3fa1600e	1.2607439
4	0x3e93beee	0.28856605
5	0x40126026	2.2871184
6	0x3f27b56e	0.65511215
7	0xbea0bc79	-0.31393793

r.3.bu f4 [2]
0	0xbeef028b	-0.46681628
1	0xbeba1862	-0.36346728
